{"format": "layers-model", "generatedBy": "keras v2.2.4-tf", "convertedBy": "TensorFlow.js Converter v1.4.0", "modelTopology": {"keras_version": "2.2.4-tf", "backend": "tensorflow", "model_config": {"class_name": "Model", "config": {"name": "model", "layers": [{"name": "input_0", "class_name": "InputLayer", "config": {"batch_input_shape": [null, 3, 300, 300], "dtype": "float32", "sparse": false, "ragged": false, "name": "input_0"}, "inbound_nodes": []}, {"name": "343_pad", "class_name": "ZeroPadding2D", "config": {"name": "343_pad", "trainable": true, "dtype": "float32", "padding": [[3, 3], [3, 3]], "data_format": "channels_first"}, "inbound_nodes": [[["input_0", 0, 0, {}]]]}, {"name": "343", "class_name": "Conv2D", "config": {"name": "343", "trainable": true, "dtype": "float32", "filters": 64, "kernel_size": [7, 7], "strides": [2, 2], "padding": "valid", "data_format": "channels_first", "dilation_rate": [1, 1], "activation": "linear", "use_bias": false, "kernel_initializer": {"class_name": "Zeros", "config": {"dtype": "float32"}}, "bias_initializer": {"class_name": "Zeros", "config": {"dtype": "float32"}}, "kernel_regularizer": null, "bias_regularizer": null, "activity_regularizer": null, "kernel_constraint": null, "bias_constraint": null}, "inbound_nodes": [[["343_pad", 0, 0, {}]]]}, {"name": "344", "class_name": "BatchNormalization", "config": {"name": "344", "trainable": true, "dtype": "float32", "axis": [1], "momentum": 0.8999999761581421, "epsilon": 9.999999747378752e-06, "center": true, "scale": true, "beta_initializer": {"class_name": "Zeros", "config": {"dtype": "float32"}}, "gamma_initializer": {"class_name": "Ones", "config": {"dtype": "float32"}}, "moving_mean_initializer": {"class_name": "Zeros", "config": {"dtype": "float32"}}, "moving_variance_initializer": {"class_name": "Ones", "config": {"dtype": "float32"}}, "beta_regularizer": null, "gamma_regularizer": null, "beta_constraint": null, "gamma_constraint": null}, "inbound_nodes": [[["343", 0, 0, {}]]]}, {"name": "345", "class_name": "Activation", "config": {"name": "345", "trainable": true, "dtype": "float32", "activation": "relu"}, "inbound_nodes": [[["344", 0, 0, {}]]]}, {"name": "346_pad", "class_name": "ZeroPadding2D", "config": {"name": "346_pad", "trainable": true, "dtype": "float32", "padding": [[1, 1], [1, 1]], "data_format": "channels_first"}, "inbound_nodes": [[["345", 0, 0, {}]]]}, {"name": "346", "class_name": "MaxPooling2D", "config": {"name": "346", "trainable": true, "dtype": "float32", "pool_size": [3, 3], "padding": "valid", "strides": [2, 2], "data_format": "channels_first"}, "inbound_nodes": [[["346_pad", 0, 0, {}]]]}, {"name": "347", "class_name": "Conv2D", "config": {"name": "347", "trainable": true, "dtype": "float32", "filters": 64, "kernel_size": [1, 1], "strides": [1, 1], "padding": "valid", "data_format": "channels_first", "dilation_rate": [1, 1], "activation": "linear", "use_bias": false, "kernel_initializer": {"class_name": "Zeros", "config": {"dtype": "float32"}}, "bias_initializer": {"class_name": "Zeros", "config": {"dtype": "float32"}}, "kernel_regularizer": null, "bias_regularizer": null, "activity_regularizer": null, "kernel_constraint": null, "bias_constraint": null}, "inbound_nodes": [[["346", 0, 0, {}]]]}, {"name": "348", "class_name": "BatchNormalization", "config": {"name": "348", "trainable": true, "dtype": "float32", "axis": [1], "momentum": 0.8999999761581421, "epsilon": 9.999999747378752e-06, "center": true, "scale": true, "beta_initializer": {"class_name": "Zeros", "config": {"dtype": "float32"}}, "gamma_initializer": {"class_name": "Ones", "config": {"dtype": "float32"}}, "moving_mean_initializer": {"class_name": "Zeros", "config": {"dtype": "float32"}}, "moving_variance_initializer": {"class_name": "Ones", "config": {"dtype": "float32"}}, "beta_regularizer": null, "gamma_regularizer": null, "beta_constraint": null, "gamma_constraint": null}, "inbound_nodes": [[["347", 0, 0, {}]]]}, {"name": "349", "class_name": "Activation", "config": {"name": "349", "trainable": true, "dtype": "float32", "activation": "relu"}, "inbound_nodes": [[["348", 0, 0, {}]]]}, {"name": "350_pad", "class_name": "ZeroPadding2D", "config": {"name": "350_pad", "trainable": true, "dtype": "float32", "padding": [[1, 1], [1, 1]], "data_format": "channels_first"}, "inbound_nodes": [[["349", 0, 0, {}]]]}, {"name": "350", "class_name": "Conv2D", "config": {"name": "350", "trainable": true, "dtype": "float32", "filters": 64, "kernel_size": [3, 3], "strides": [1, 1], "padding": "valid", "data_format": "channels_first", "dilation_rate": [1, 1], "activation": "linear", "use_bias": false, "kernel_initializer": {"class_name": "Zeros", "config": {"dtype": "float32"}}, "bias_initializer": {"class_name": "Zeros", "config": {"dtype": "float32"}}, "kernel_regularizer": null, "bias_regularizer": null, "activity_regularizer": null, "kernel_constraint": null, "bias_constraint": null}, "inbound_nodes": [[["350_pad", 0, 0, {}]]]}, {"name": "351", "class_name": "BatchNormalization", "config": {"name": "351", "trainable": true, "dtype": "float32", "axis": [1], "momentum": 0.8999999761581421, "epsilon": 9.999999747378752e-06, "center": true, "scale": true, "beta_initializer": {"class_name": "Zeros", "config": {"dtype": "float32"}}, "gamma_initializer": {"class_name": "Ones", "config": {"dtype": "float32"}}, "moving_mean_initializer": {"class_name": "Zeros", "config": {"dtype": "float32"}}, "moving_variance_initializer": {"class_name": "Ones", "config": {"dtype": "float32"}}, "beta_regularizer": null, "gamma_regularizer": null, "beta_constraint": null, "gamma_constraint": null}, "inbound_nodes": [[["350", 0, 0, {}]]]}, {"name": "352", "class_name": "Activation", "config": {"name": "352", "trainable": true, "dtype": "float32", "activation": "relu"}, "inbound_nodes": [[["351", 0, 0, {}]]]}, {"name": "353", "class_name": "Conv2D", "config": {"name": "353", "trainable": true, "dtype": "float32", "filters": 256, "kernel_size": [1, 1], "strides": [1, 1], "padding": "valid", "data_format": "channels_first", "dilation_rate": [1, 1], "activation": "linear", "use_bias": false, "kernel_initializer": {"class_name": "Zeros", "config": {"dtype": "float32"}}, "bias_initializer": {"class_name": "Zeros", "config": {"dtype": "float32"}}, "kernel_regularizer": null, "bias_regularizer": null, "activity_regularizer": null, "kernel_constraint": null, "bias_constraint": null}, "inbound_nodes": [[["352", 0, 0, {}]]]}, {"name": "355", "class_name": "Conv2D", "config": {"name": "355", "trainable": true, "dtype": "float32", "filters": 256, "kernel_size": [1, 1], "strides": [1, 1], "padding": "valid", "data_format": "channels_first", "dilation_rate": [1, 1], "activation": "linear", "use_bias": false, "kernel_initializer": {"class_name": "Zeros", "config": {"dtype": "float32"}}, "bias_initializer": {"class_name": "Zeros", "config": {"dtype": "float32"}}, "kernel_regularizer": null, "bias_regularizer": null, "activity_regularizer": null, "kernel_constraint": null, "bias_constraint": null}, "inbound_nodes": [[["346", 0, 0, {}]]]}, {"name": "354", "class_name": "BatchNormalization", "config": {"name": "354", "trainable": true, "dtype": "float32", "axis": [1], "momentum": 0.8999999761581421, "epsilon": 9.999999747378752e-06, "center": true, "scale": true, "beta_initializer": {"class_name": "Zeros", "config": {"dtype": "float32"}}, "gamma_initializer": {"class_name": "Ones", "config": {"dtype": "float32"}}, "moving_mean_initializer": {"class_name": "Zeros", "config": {"dtype": "float32"}}, "moving_variance_initializer": {"class_name": "Ones", "config": {"dtype": "float32"}}, "beta_regularizer": null, "gamma_regularizer": null, "beta_constraint": null, "gamma_constraint": null}, "inbound_nodes": [[["353", 0, 0, {}]]]}, {"name": "356", "class_name": "BatchNormalization", "config": {"name": "356", "trainable": true, "dtype": "float32", "axis": [1], "momentum": 0.8999999761581421, "epsilon": 9.999999747378752e-06, "center": true, "scale": true, "beta_initializer": {"class_name": "Zeros", "config": {"dtype": "float32"}}, "gamma_initializer": {"class_name": "Ones", "config": {"dtype": "float32"}}, "moving_mean_initializer": {"class_name": "Zeros", "config": {"dtype": "float32"}}, "moving_variance_initializer": {"class_name": "Ones", "config": {"dtype": "float32"}}, "beta_regularizer": null, "gamma_regularizer": null, "beta_constraint": null, "gamma_constraint": null}, "inbound_nodes": [[["355", 0, 0, {}]]]}, {"name": "357", "class_name": "Add", "config": {"name": "357", "trainable": true, "dtype": "float32"}, "inbound_nodes": [[["354", 0, 0, {}], ["356", 0, 0, {}]]]}, {"name": "358", "class_name": "Activation", "config": {"name": "358", "trainable": true, "dtype": "float32", "activation": "relu"}, "inbound_nodes": [[["357", 0, 0, {}]]]}, {"name": "359", "class_name": "Conv2D", "config": {"name": "359", "trainable": true, "dtype": "float32", "filters": 64, "kernel_size": [1, 1], "strides": [1, 1], "padding": "valid", "data_format": "channels_first", "dilation_rate": [1, 1], "activation": "linear", "use_bias": false, "kernel_initializer": {"class_name": "Zeros", "config": {"dtype": "float32"}}, "bias_initializer": {"class_name": "Zeros", "config": {"dtype": "float32"}}, "kernel_regularizer": null, "bias_regularizer": null, "activity_regularizer": null, "kernel_constraint": null, "bias_constraint": null}, "inbound_nodes": [[["358", 0, 0, {}]]]}, {"name": "360", "class_name": "BatchNormalization", "config": {"name": "360", "trainable": true, "dtype": "float32", "axis": [1], "momentum": 0.8999999761581421, "epsilon": 9.999999747378752e-06, "center": true, "scale": true, "beta_initializer": {"class_name": "Zeros", "config": {"dtype": "float32"}}, "gamma_initializer": {"class_name": "Ones", "config": {"dtype": "float32"}}, "moving_mean_initializer": {"class_name": "Zeros", "config": {"dtype": "float32"}}, "moving_variance_initializer": {"class_name": "Ones", "config": {"dtype": "float32"}}, "beta_regularizer": null, "gamma_regularizer": null, "beta_constraint": null, "gamma_constraint": null}, "inbound_nodes": [[["359", 0, 0, {}]]]}, {"name": "361", "class_name": "Activation", "config": {"name": "361", "trainable": true, "dtype": "float32", "activation": "relu"}, "inbound_nodes": [[["360", 0, 0, {}]]]}, {"name": "362_pad", "class_name": "ZeroPadding2D", "config": {"name": "362_pad", "trainable": true, "dtype": "float32", "padding": [[1, 1], [1, 1]], "data_format": "channels_first"}, "inbound_nodes": [[["361", 0, 0, {}]]]}, {"name": "362", "class_name": "Conv2D", "config": {"name": "362", "trainable": true, "dtype": "float32", "filters": 64, "kernel_size": [3, 3], "strides": [1, 1], "padding": "valid", "data_format": "channels_first", "dilation_rate": [1, 1], "activation": "linear", "use_bias": false, "kernel_initializer": {"class_name": "Zeros", "config": {"dtype": "float32"}}, "bias_initializer": {"class_name": "Zeros", "config": {"dtype": "float32"}}, "kernel_regularizer": null, "bias_regularizer": null, "activity_regularizer": null, "kernel_constraint": null, "bias_constraint": null}, "inbound_nodes": [[["362_pad", 0, 0, {}]]]}, {"name": "363", "class_name": "BatchNormalization", "config": {"name": "363", "trainable": true, "dtype": "float32", "axis": [1], "momentum": 0.8999999761581421, "epsilon": 9.999999747378752e-06, "center": true, "scale": true, "beta_initializer": {"class_name": "Zeros", "config": {"dtype": "float32"}}, "gamma_initializer": {"class_name": "Ones", "config": {"dtype": "float32"}}, "moving_mean_initializer": {"class_name": "Zeros", "config": {"dtype": "float32"}}, "moving_variance_initializer": {"class_name": "Ones", "config": {"dtype": "float32"}}, "beta_regularizer": null, "gamma_regularizer": null, "beta_constraint": null, "gamma_constraint": null}, "inbound_nodes": [[["362", 0, 0, {}]]]}, {"name": "364", "class_name": "Activation", "config": {"name": "364", "trainable": true, "dtype": "float32", "activation": "relu"}, "inbound_nodes": [[["363", 0, 0, {}]]]}, {"name": "365", "class_name": "Conv2D", "config": {"name": "365", "trainable": true, "dtype": "float32", "filters": 256, "kernel_size": [1, 1], "strides": [1, 1], "padding": "valid", "data_format": "channels_first", "dilation_rate": [1, 1], "activation": "linear", "use_bias": false, "kernel_initializer": {"class_name": "Zeros", "config": {"dtype": "float32"}}, "bias_initializer": {"class_name": "Zeros", "config": {"dtype": "float32"}}, "kernel_regularizer": null, "bias_regularizer": null, "activity_regularizer": null, "kernel_constraint": null, "bias_constraint": null}, "inbound_nodes": [[["364", 0, 0, {}]]]}, {"name": "366", "class_name": "BatchNormalization", "config": {"name": "366", "trainable": true, "dtype": "float32", "axis": [1], "momentum": 0.8999999761581421, "epsilon": 9.999999747378752e-06, "center": true, "scale": true, "beta_initializer": {"class_name": "Zeros", "config": {"dtype": "float32"}}, "gamma_initializer": {"class_name": "Ones", "config": {"dtype": "float32"}}, "moving_mean_initializer": {"class_name": "Zeros", "config": {"dtype": "float32"}}, "moving_variance_initializer": {"class_name": "Ones", "config": {"dtype": "float32"}}, "beta_regularizer": null, "gamma_regularizer": null, "beta_constraint": null, "gamma_constraint": null}, "inbound_nodes": [[["365", 0, 0, {}]]]}, {"name": "367", "class_name": "Add", "config": {"name": "367", "trainable": true, "dtype": "float32"}, "inbound_nodes": [[["366", 0, 0, {}], ["358", 0, 0, {}]]]}, {"name": "368", "class_name": "Activation", "config": {"name": "368", "trainable": true, "dtype": "float32", "activation": "relu"}, "inbound_nodes": [[["367", 0, 0, {}]]]}, {"name": "369", "class_name": "Conv2D", "config": {"name": "369", "trainable": true, "dtype": "float32", "filters": 64, "kernel_size": [1, 1], "strides": [1, 1], "padding": "valid", "data_format": "channels_first", "dilation_rate": [1, 1], "activation": "linear", "use_bias": false, "kernel_initializer": {"class_name": "Zeros", "config": {"dtype": "float32"}}, "bias_initializer": {"class_name": "Zeros", "config": {"dtype": "float32"}}, "kernel_regularizer": null, "bias_regularizer": null, "activity_regularizer": null, "kernel_constraint": null, "bias_constraint": null}, "inbound_nodes": [[["368", 0, 0, {}]]]}, {"name": "370", "class_name": "BatchNormalization", "config": {"name": "370", "trainable": true, "dtype": "float32", "axis": [1], "momentum": 0.8999999761581421, "epsilon": 9.999999747378752e-06, "center": true, "scale": true, "beta_initializer": {"class_name": "Zeros", "config": {"dtype": "float32"}}, "gamma_initializer": {"class_name": "Ones", "config": {"dtype": "float32"}}, "moving_mean_initializer": {"class_name": "Zeros", "config": {"dtype": "float32"}}, "moving_variance_initializer": {"class_name": "Ones", "config": {"dtype": "float32"}}, "beta_regularizer": null, "gamma_regularizer": null, "beta_constraint": null, "gamma_constraint": null}, "inbound_nodes": [[["369", 0, 0, {}]]]}, {"name": "371", "class_name": "Activation", "config": {"name": "371", "trainable": true, "dtype": "float32", "activation": "relu"}, "inbound_nodes": [[["370", 0, 0, {}]]]}, {"name": "372_pad", "class_name": "ZeroPadding2D", "config": {"name": "372_pad", "trainable": true, "dtype": "float32", "padding": [[1, 1], [1, 1]], "data_format": "channels_first"}, "inbound_nodes": [[["371", 0, 0, {}]]]}, {"name": "372", "class_name": "Conv2D", "config": {"name": "372", "trainable": true, "dtype": "float32", "filters": 64, "kernel_size": [3, 3], "strides": [1, 1], "padding": "valid", "data_format": "channels_first", "dilation_rate": [1, 1], "activation": "linear", "use_bias": false, "kernel_initializer": {"class_name": "Zeros", "config": {"dtype": "float32"}}, "bias_initializer": {"class_name": "Zeros", "config": {"dtype": "float32"}}, "kernel_regularizer": null, "bias_regularizer": null, "activity_regularizer": null, "kernel_constraint": null, "bias_constraint": null}, "inbound_nodes": [[["372_pad", 0, 0, {}]]]}, {"name": "373", "class_name": "BatchNormalization", "config": {"name": "373", "trainable": true, "dtype": "float32", "axis": [1], "momentum": 0.8999999761581421, "epsilon": 9.999999747378752e-06, "center": true, "scale": true, "beta_initializer": {"class_name": "Zeros", "config": {"dtype": "float32"}}, "gamma_initializer": {"class_name": "Ones", "config": {"dtype": "float32"}}, "moving_mean_initializer": {"class_name": "Zeros", "config": {"dtype": "float32"}}, "moving_variance_initializer": {"class_name": "Ones", "config": {"dtype": "float32"}}, "beta_regularizer": null, "gamma_regularizer": null, "beta_constraint": null, "gamma_constraint": null}, "inbound_nodes": [[["372", 0, 0, {}]]]}, {"name": "374", "class_name": "Activation", "config": {"name": "374", "trainable": true, "dtype": "float32", "activation": "relu"}, "inbound_nodes": [[["373", 0, 0, {}]]]}, {"name": "375", "class_name": "Conv2D", "config": {"name": "375", "trainable": true, "dtype": "float32", "filters": 256, "kernel_size": [1, 1], "strides": [1, 1], "padding": "valid", "data_format": "channels_first", "dilation_rate": [1, 1], "activation": "linear", "use_bias": false, "kernel_initializer": {"class_name": "Zeros", "config": {"dtype": "float32"}}, "bias_initializer": {"class_name": "Zeros", "config": {"dtype": "float32"}}, "kernel_regularizer": null, "bias_regularizer": null, "activity_regularizer": null, "kernel_constraint": null, "bias_constraint": null}, "inbound_nodes": [[["374", 0, 0, {}]]]}, {"name": "376", "class_name": "BatchNormalization", "config": {"name": "376", "trainable": true, "dtype": "float32", "axis": [1], "momentum": 0.8999999761581421, "epsilon": 9.999999747378752e-06, "center": true, "scale": true, "beta_initializer": {"class_name": "Zeros", "config": {"dtype": "float32"}}, "gamma_initializer": {"class_name": "Ones", "config": {"dtype": "float32"}}, "moving_mean_initializer": {"class_name": "Zeros", "config": {"dtype": "float32"}}, "moving_variance_initializer": {"class_name": "Ones", "config": {"dtype": "float32"}}, "beta_regularizer": null, "gamma_regularizer": null, "beta_constraint": null, "gamma_constraint": null}, "inbound_nodes": [[["375", 0, 0, {}]]]}, {"name": "377", "class_name": "Add", "config": {"name": "377", "trainable": true, "dtype": "float32"}, "inbound_nodes": [[["376", 0, 0, {}], ["368", 0, 0, {}]]]}, {"name": "378", "class_name": "Activation", "config": {"name": "378", "trainable": true, "dtype": "float32", "activation": "relu"}, "inbound_nodes": [[["377", 0, 0, {}]]]}, {"name": "379", "class_name": "Conv2D", "config": {"name": "379", "trainable": true, "dtype": "float32", "filters": 128, "kernel_size": [1, 1], "strides": [1, 1], "padding": "valid", "data_format": "channels_first", "dilation_rate": [1, 1], "activation": "linear", "use_bias": false, "kernel_initializer": {"class_name": "Zeros", "config": {"dtype": "float32"}}, "bias_initializer": {"class_name": "Zeros", "config": {"dtype": "float32"}}, "kernel_regularizer": null, "bias_regularizer": null, "activity_regularizer": null, "kernel_constraint": null, "bias_constraint": null}, "inbound_nodes": [[["378", 0, 0, {}]]]}, {"name": "380", "class_name": "BatchNormalization", "config": {"name": "380", "trainable": true, "dtype": "float32", "axis": [1], "momentum": 0.8999999761581421, "epsilon": 9.999999747378752e-06, "center": true, "scale": true, "beta_initializer": {"class_name": "Zeros", "config": {"dtype": "float32"}}, "gamma_initializer": {"class_name": "Ones", "config": {"dtype": "float32"}}, "moving_mean_initializer": {"class_name": "Zeros", "config": {"dtype": "float32"}}, "moving_variance_initializer": {"class_name": "Ones", "config": {"dtype": "float32"}}, "beta_regularizer": null, "gamma_regularizer": null, "beta_constraint": null, "gamma_constraint": null}, "inbound_nodes": [[["379", 0, 0, {}]]]}, {"name": "381", "class_name": "Activation", "config": {"name": "381", "trainable": true, "dtype": "float32", "activation": "relu"}, "inbound_nodes": [[["380", 0, 0, {}]]]}, {"name": "382_pad", "class_name": "ZeroPadding2D", "config": {"name": "382_pad", "trainable": true, "dtype": "float32", "padding": [[1, 1], [1, 1]], "data_format": "channels_first"}, "inbound_nodes": [[["381", 0, 0, {}]]]}, {"name": "382", "class_name": "Conv2D", "config": {"name": "382", "trainable": true, "dtype": "float32", "filters": 128, "kernel_size": [3, 3], "strides": [2, 2], "padding": "valid", "data_format": "channels_first", "dilation_rate": [1, 1], "activation": "linear", "use_bias": false, "kernel_initializer": {"class_name": "Zeros", "config": {"dtype": "float32"}}, "bias_initializer": {"class_name": "Zeros", "config": {"dtype": "float32"}}, "kernel_regularizer": null, "bias_regularizer": null, "activity_regularizer": null, "kernel_constraint": null, "bias_constraint": null}, "inbound_nodes": [[["382_pad", 0, 0, {}]]]}, {"name": "383", "class_name": "BatchNormalization", "config": {"name": "383", "trainable": true, "dtype": "float32", "axis": [1], "momentum": 0.8999999761581421, "epsilon": 9.999999747378752e-06, "center": true, "scale": true, "beta_initializer": {"class_name": "Zeros", "config": {"dtype": "float32"}}, "gamma_initializer": {"class_name": "Ones", "config": {"dtype": "float32"}}, "moving_mean_initializer": {"class_name": "Zeros", "config": {"dtype": "float32"}}, "moving_variance_initializer": {"class_name": "Ones", "config": {"dtype": "float32"}}, "beta_regularizer": null, "gamma_regularizer": null, "beta_constraint": null, "gamma_constraint": null}, "inbound_nodes": [[["382", 0, 0, {}]]]}, {"name": "384", "class_name": "Activation", "config": {"name": "384", "trainable": true, "dtype": "float32", "activation": "relu"}, "inbound_nodes": [[["383", 0, 0, {}]]]}, {"name": "385", "class_name": "Conv2D", "config": {"name": "385", "trainable": true, "dtype": "float32", "filters": 512, "kernel_size": [1, 1], "strides": [1, 1], "padding": "valid", "data_format": "channels_first", "dilation_rate": [1, 1], "activation": "linear", "use_bias": false, "kernel_initializer": {"class_name": "Zeros", "config": {"dtype": "float32"}}, "bias_initializer": {"class_name": "Zeros", "config": {"dtype": "float32"}}, "kernel_regularizer": null, "bias_regularizer": null, "activity_regularizer": null, "kernel_constraint": null, "bias_constraint": null}, "inbound_nodes": [[["384", 0, 0, {}]]]}, {"name": "387", "class_name": "Conv2D", "config": {"name": "387", "trainable": true, "dtype": "float32", "filters": 512, "kernel_size": [1, 1], "strides": [2, 2], "padding": "valid", "data_format": "channels_first", "dilation_rate": [1, 1], "activation": "linear", "use_bias": false, "kernel_initializer": {"class_name": "Zeros", "config": {"dtype": "float32"}}, "bias_initializer": {"class_name": "Zeros", "config": {"dtype": "float32"}}, "kernel_regularizer": null, "bias_regularizer": null, "activity_regularizer": null, "kernel_constraint": null, "bias_constraint": null}, "inbound_nodes": [[["378", 0, 0, {}]]]}, {"name": "386", "class_name": "BatchNormalization", "config": {"name": "386", "trainable": true, "dtype": "float32", "axis": [1], "momentum": 0.8999999761581421, "epsilon": 9.999999747378752e-06, "center": true, "scale": true, "beta_initializer": {"class_name": "Zeros", "config": {"dtype": "float32"}}, "gamma_initializer": {"class_name": "Ones", "config": {"dtype": "float32"}}, "moving_mean_initializer": {"class_name": "Zeros", "config": {"dtype": "float32"}}, "moving_variance_initializer": {"class_name": "Ones", "config": {"dtype": "float32"}}, "beta_regularizer": null, "gamma_regularizer": null, "beta_constraint": null, "gamma_constraint": null}, "inbound_nodes": [[["385", 0, 0, {}]]]}, {"name": "388", "class_name": "BatchNormalization", "config": {"name": "388", "trainable": true, "dtype": "float32", "axis": [1], "momentum": 0.8999999761581421, "epsilon": 9.999999747378752e-06, "center": true, "scale": true, "beta_initializer": {"class_name": "Zeros", "config": {"dtype": "float32"}}, "gamma_initializer": {"class_name": "Ones", "config": {"dtype": "float32"}}, "moving_mean_initializer": {"class_name": "Zeros", "config": {"dtype": "float32"}}, "moving_variance_initializer": {"class_name": "Ones", "config": {"dtype": "float32"}}, "beta_regularizer": null, "gamma_regularizer": null, "beta_constraint": null, "gamma_constraint": null}, "inbound_nodes": [[["387", 0, 0, {}]]]}, {"name": "389", "class_name": "Add", "config": {"name": "389", "trainable": true, "dtype": "float32"}, "inbound_nodes": [[["386", 0, 0, {}], ["388", 0, 0, {}]]]}, {"name": "390", "class_name": "Activation", "config": {"name": "390", "trainable": true, "dtype": "float32", "activation": "relu"}, "inbound_nodes": [[["389", 0, 0, {}]]]}, {"name": "391", "class_name": "Conv2D", "config": {"name": "391", "trainable": true, "dtype": "float32", "filters": 128, "kernel_size": [1, 1], "strides": [1, 1], "padding": "valid", "data_format": "channels_first", "dilation_rate": [1, 1], "activation": "linear", "use_bias": false, "kernel_initializer": {"class_name": "Zeros", "config": {"dtype": "float32"}}, "bias_initializer": {"class_name": "Zeros", "config": {"dtype": "float32"}}, "kernel_regularizer": null, "bias_regularizer": null, "activity_regularizer": null, "kernel_constraint": null, "bias_constraint": null}, "inbound_nodes": [[["390", 0, 0, {}]]]}, {"name": "392", "class_name": "BatchNormalization", "config": {"name": "392", "trainable": true, "dtype": "float32", "axis": [1], "momentum": 0.8999999761581421, "epsilon": 9.999999747378752e-06, "center": true, "scale": true, "beta_initializer": {"class_name": "Zeros", "config": {"dtype": "float32"}}, "gamma_initializer": {"class_name": "Ones", "config": {"dtype": "float32"}}, "moving_mean_initializer": {"class_name": "Zeros", "config": {"dtype": "float32"}}, "moving_variance_initializer": {"class_name": "Ones", "config": {"dtype": "float32"}}, "beta_regularizer": null, "gamma_regularizer": null, "beta_constraint": null, "gamma_constraint": null}, "inbound_nodes": [[["391", 0, 0, {}]]]}, {"name": "393", "class_name": "Activation", "config": {"name": "393", "trainable": true, "dtype": "float32", "activation": "relu"}, "inbound_nodes": [[["392", 0, 0, {}]]]}, {"name": "394_pad", "class_name": "ZeroPadding2D", "config": {"name": "394_pad", "trainable": true, "dtype": "float32", "padding": [[1, 1], [1, 1]], "data_format": "channels_first"}, "inbound_nodes": [[["393", 0, 0, {}]]]}, {"name": "394", "class_name": "Conv2D", "config": {"name": "394", "trainable": true, "dtype": "float32", "filters": 128, "kernel_size": [3, 3], "strides": [1, 1], "padding": "valid", "data_format": "channels_first", "dilation_rate": [1, 1], "activation": "linear", "use_bias": false, "kernel_initializer": {"class_name": "Zeros", "config": {"dtype": "float32"}}, "bias_initializer": {"class_name": "Zeros", "config": {"dtype": "float32"}}, "kernel_regularizer": null, "bias_regularizer": null, "activity_regularizer": null, "kernel_constraint": null, "bias_constraint": null}, "inbound_nodes": [[["394_pad", 0, 0, {}]]]}, {"name": "395", "class_name": "BatchNormalization", "config": {"name": "395", "trainable": true, "dtype": "float32", "axis": [1], "momentum": 0.8999999761581421, "epsilon": 9.999999747378752e-06, "center": true, "scale": true, "beta_initializer": {"class_name": "Zeros", "config": {"dtype": "float32"}}, "gamma_initializer": {"class_name": "Ones", "config": {"dtype": "float32"}}, "moving_mean_initializer": {"class_name": "Zeros", "config": {"dtype": "float32"}}, "moving_variance_initializer": {"class_name": "Ones", "config": {"dtype": "float32"}}, "beta_regularizer": null, "gamma_regularizer": null, "beta_constraint": null, "gamma_constraint": null}, "inbound_nodes": [[["394", 0, 0, {}]]]}, {"name": "396", "class_name": "Activation", "config": {"name": "396", "trainable": true, "dtype": "float32", "activation": "relu"}, "inbound_nodes": [[["395", 0, 0, {}]]]}, {"name": "397", "class_name": "Conv2D", "config": {"name": "397", "trainable": true, "dtype": "float32", "filters": 512, "kernel_size": [1, 1], "strides": [1, 1], "padding": "valid", "data_format": "channels_first", "dilation_rate": [1, 1], "activation": "linear", "use_bias": false, "kernel_initializer": {"class_name": "Zeros", "config": {"dtype": "float32"}}, "bias_initializer": {"class_name": "Zeros", "config": {"dtype": "float32"}}, "kernel_regularizer": null, "bias_regularizer": null, "activity_regularizer": null, "kernel_constraint": null, "bias_constraint": null}, "inbound_nodes": [[["396", 0, 0, {}]]]}, {"name": "398", "class_name": "BatchNormalization", "config": {"name": "398", "trainable": true, "dtype": "float32", "axis": [1], "momentum": 0.8999999761581421, "epsilon": 9.999999747378752e-06, "center": true, "scale": true, "beta_initializer": {"class_name": "Zeros", "config": {"dtype": "float32"}}, "gamma_initializer": {"class_name": "Ones", "config": {"dtype": "float32"}}, "moving_mean_initializer": {"class_name": "Zeros", "config": {"dtype": "float32"}}, "moving_variance_initializer": {"class_name": "Ones", "config": {"dtype": "float32"}}, "beta_regularizer": null, "gamma_regularizer": null, "beta_constraint": null, "gamma_constraint": null}, "inbound_nodes": [[["397", 0, 0, {}]]]}, {"name": "399", "class_name": "Add", "config": {"name": "399", "trainable": true, "dtype": "float32"}, "inbound_nodes": [[["398", 0, 0, {}], ["390", 0, 0, {}]]]}, {"name": "400", "class_name": "Activation", "config": {"name": "400", "trainable": true, "dtype": "float32", "activation": "relu"}, "inbound_nodes": [[["399", 0, 0, {}]]]}, {"name": "401", "class_name": "Conv2D", "config": {"name": "401", "trainable": true, "dtype": "float32", "filters": 128, "kernel_size": [1, 1], "strides": [1, 1], "padding": "valid", "data_format": "channels_first", "dilation_rate": [1, 1], "activation": "linear", "use_bias": false, "kernel_initializer": {"class_name": "Zeros", "config": {"dtype": "float32"}}, "bias_initializer": {"class_name": "Zeros", "config": {"dtype": "float32"}}, "kernel_regularizer": null, "bias_regularizer": null, "activity_regularizer": null, "kernel_constraint": null, "bias_constraint": null}, "inbound_nodes": [[["400", 0, 0, {}]]]}, {"name": "402", "class_name": "BatchNormalization", "config": {"name": "402", "trainable": true, "dtype": "float32", "axis": [1], "momentum": 0.8999999761581421, "epsilon": 9.999999747378752e-06, "center": true, "scale": true, "beta_initializer": {"class_name": "Zeros", "config": {"dtype": "float32"}}, "gamma_initializer": {"class_name": "Ones", "config": {"dtype": "float32"}}, "moving_mean_initializer": {"class_name": "Zeros", "config": {"dtype": "float32"}}, "moving_variance_initializer": {"class_name": "Ones", "config": {"dtype": "float32"}}, "beta_regularizer": null, "gamma_regularizer": null, "beta_constraint": null, "gamma_constraint": null}, "inbound_nodes": [[["401", 0, 0, {}]]]}, {"name": "403", "class_name": "Activation", "config": {"name": "403", "trainable": true, "dtype": "float32", "activation": "relu"}, "inbound_nodes": [[["402", 0, 0, {}]]]}, {"name": "404_pad", "class_name": "ZeroPadding2D", "config": {"name": "404_pad", "trainable": true, "dtype": "float32", "padding": [[1, 1], [1, 1]], "data_format": "channels_first"}, "inbound_nodes": [[["403", 0, 0, {}]]]}, {"name": "404", "class_name": "Conv2D", "config": {"name": "404", "trainable": true, "dtype": "float32", "filters": 128, "kernel_size": [3, 3], "strides": [1, 1], "padding": "valid", "data_format": "channels_first", "dilation_rate": [1, 1], "activation": "linear", "use_bias": false, "kernel_initializer": {"class_name": "Zeros", "config": {"dtype": "float32"}}, "bias_initializer": {"class_name": "Zeros", "config": {"dtype": "float32"}}, "kernel_regularizer": null, "bias_regularizer": null, "activity_regularizer": null, "kernel_constraint": null, "bias_constraint": null}, "inbound_nodes": [[["404_pad", 0, 0, {}]]]}, {"name": "405", "class_name": "BatchNormalization", "config": {"name": "405", "trainable": true, "dtype": "float32", "axis": [1], "momentum": 0.8999999761581421, "epsilon": 9.999999747378752e-06, "center": true, "scale": true, "beta_initializer": {"class_name": "Zeros", "config": {"dtype": "float32"}}, "gamma_initializer": {"class_name": "Ones", "config": {"dtype": "float32"}}, "moving_mean_initializer": {"class_name": "Zeros", "config": {"dtype": "float32"}}, "moving_variance_initializer": {"class_name": "Ones", "config": {"dtype": "float32"}}, "beta_regularizer": null, "gamma_regularizer": null, "beta_constraint": null, "gamma_constraint": null}, "inbound_nodes": [[["404", 0, 0, {}]]]}, {"name": "406", "class_name": "Activation", "config": {"name": "406", "trainable": true, "dtype": "float32", "activation": "relu"}, "inbound_nodes": [[["405", 0, 0, {}]]]}, {"name": "407", "class_name": "Conv2D", "config": {"name": "407", "trainable": true, "dtype": "float32", "filters": 512, "kernel_size": [1, 1], "strides": [1, 1], "padding": "valid", "data_format": "channels_first", "dilation_rate": [1, 1], "activation": "linear", "use_bias": false, "kernel_initializer": {"class_name": "Zeros", "config": {"dtype": "float32"}}, "bias_initializer": {"class_name": "Zeros", "config": {"dtype": "float32"}}, "kernel_regularizer": null, "bias_regularizer": null, "activity_regularizer": null, "kernel_constraint": null, "bias_constraint": null}, "inbound_nodes": [[["406", 0, 0, {}]]]}, {"name": "408", "class_name": "BatchNormalization", "config": {"name": "408", "trainable": true, "dtype": "float32", "axis": [1], "momentum": 0.8999999761581421, "epsilon": 9.999999747378752e-06, "center": true, "scale": true, "beta_initializer": {"class_name": "Zeros", "config": {"dtype": "float32"}}, "gamma_initializer": {"class_name": "Ones", "config": {"dtype": "float32"}}, "moving_mean_initializer": {"class_name": "Zeros", "config": {"dtype": "float32"}}, "moving_variance_initializer": {"class_name": "Ones", "config": {"dtype": "float32"}}, "beta_regularizer": null, "gamma_regularizer": null, "beta_constraint": null, "gamma_constraint": null}, "inbound_nodes": [[["407", 0, 0, {}]]]}, {"name": "409", "class_name": "Add", "config": {"name": "409", "trainable": true, "dtype": "float32"}, "inbound_nodes": [[["408", 0, 0, {}], ["400", 0, 0, {}]]]}, {"name": "410", "class_name": "Activation", "config": {"name": "410", "trainable": true, "dtype": "float32", "activation": "relu"}, "inbound_nodes": [[["409", 0, 0, {}]]]}, {"name": "411", "class_name": "Conv2D", "config": {"name": "411", "trainable": true, "dtype": "float32", "filters": 128, "kernel_size": [1, 1], "strides": [1, 1], "padding": "valid", "data_format": "channels_first", "dilation_rate": [1, 1], "activation": "linear", "use_bias": false, "kernel_initializer": {"class_name": "Zeros", "config": {"dtype": "float32"}}, "bias_initializer": {"class_name": "Zeros", "config": {"dtype": "float32"}}, "kernel_regularizer": null, "bias_regularizer": null, "activity_regularizer": null, "kernel_constraint": null, "bias_constraint": null}, "inbound_nodes": [[["410", 0, 0, {}]]]}, {"name": "412", "class_name": "BatchNormalization", "config": {"name": "412", "trainable": true, "dtype": "float32", "axis": [1], "momentum": 0.8999999761581421, "epsilon": 9.999999747378752e-06, "center": true, "scale": true, "beta_initializer": {"class_name": "Zeros", "config": {"dtype": "float32"}}, "gamma_initializer": {"class_name": "Ones", "config": {"dtype": "float32"}}, "moving_mean_initializer": {"class_name": "Zeros", "config": {"dtype": "float32"}}, "moving_variance_initializer": {"class_name": "Ones", "config": {"dtype": "float32"}}, "beta_regularizer": null, "gamma_regularizer": null, "beta_constraint": null, "gamma_constraint": null}, "inbound_nodes": [[["411", 0, 0, {}]]]}, {"name": "413", "class_name": "Activation", "config": {"name": "413", "trainable": true, "dtype": "float32", "activation": "relu"}, "inbound_nodes": [[["412", 0, 0, {}]]]}, {"name": "414_pad", "class_name": "ZeroPadding2D", "config": {"name": "414_pad", "trainable": true, "dtype": "float32", "padding": [[1, 1], [1, 1]], "data_format": "channels_first"}, "inbound_nodes": [[["413", 0, 0, {}]]]}, {"name": "414", "class_name": "Conv2D", "config": {"name": "414", "trainable": true, "dtype": "float32", "filters": 128, "kernel_size": [3, 3], "strides": [1, 1], "padding": "valid", "data_format": "channels_first", "dilation_rate": [1, 1], "activation": "linear", "use_bias": false, "kernel_initializer": {"class_name": "Zeros", "config": {"dtype": "float32"}}, "bias_initializer": {"class_name": "Zeros", "config": {"dtype": "float32"}}, "kernel_regularizer": null, "bias_regularizer": null, "activity_regularizer": null, "kernel_constraint": null, "bias_constraint": null}, "inbound_nodes": [[["414_pad", 0, 0, {}]]]}, {"name": "415", "class_name": "BatchNormalization", "config": {"name": "415", "trainable": true, "dtype": "float32", "axis": [1], "momentum": 0.8999999761581421, "epsilon": 9.999999747378752e-06, "center": true, "scale": true, "beta_initializer": {"class_name": "Zeros", "config": {"dtype": "float32"}}, "gamma_initializer": {"class_name": "Ones", "config": {"dtype": "float32"}}, "moving_mean_initializer": {"class_name": "Zeros", "config": {"dtype": "float32"}}, "moving_variance_initializer": {"class_name": "Ones", "config": {"dtype": "float32"}}, "beta_regularizer": null, "gamma_regularizer": null, "beta_constraint": null, "gamma_constraint": null}, "inbound_nodes": [[["414", 0, 0, {}]]]}, {"name": "416", "class_name": "Activation", "config": {"name": "416", "trainable": true, "dtype": "float32", "activation": "relu"}, "inbound_nodes": [[["415", 0, 0, {}]]]}, {"name": "417", "class_name": "Conv2D", "config": {"name": "417", "trainable": true, "dtype": "float32", "filters": 512, "kernel_size": [1, 1], "strides": [1, 1], "padding": "valid", "data_format": "channels_first", "dilation_rate": [1, 1], "activation": "linear", "use_bias": false, "kernel_initializer": {"class_name": "Zeros", "config": {"dtype": "float32"}}, "bias_initializer": {"class_name": "Zeros", "config": {"dtype": "float32"}}, "kernel_regularizer": null, "bias_regularizer": null, "activity_regularizer": null, "kernel_constraint": null, "bias_constraint": null}, "inbound_nodes": [[["416", 0, 0, {}]]]}, {"name": "418", "class_name": "BatchNormalization", "config": {"name": "418", "trainable": true, "dtype": "float32", "axis": [1], "momentum": 0.8999999761581421, "epsilon": 9.999999747378752e-06, "center": true, "scale": true, "beta_initializer": {"class_name": "Zeros", "config": {"dtype": "float32"}}, "gamma_initializer": {"class_name": "Ones", "config": {"dtype": "float32"}}, "moving_mean_initializer": {"class_name": "Zeros", "config": {"dtype": "float32"}}, "moving_variance_initializer": {"class_name": "Ones", "config": {"dtype": "float32"}}, "beta_regularizer": null, "gamma_regularizer": null, "beta_constraint": null, "gamma_constraint": null}, "inbound_nodes": [[["417", 0, 0, {}]]]}, {"name": "419", "class_name": "Add", "config": {"name": "419", "trainable": true, "dtype": "float32"}, "inbound_nodes": [[["418", 0, 0, {}], ["410", 0, 0, {}]]]}, {"name": "420", "class_name": "Activation", "config": {"name": "420", "trainable": true, "dtype": "float32", "activation": "relu"}, "inbound_nodes": [[["419", 0, 0, {}]]]}, {"name": "421", "class_name": "Conv2D", "config": {"name": "421", "trainable": true, "dtype": "float32", "filters": 256, "kernel_size": [1, 1], "strides": [1, 1], "padding": "valid", "data_format": "channels_first", "dilation_rate": [1, 1], "activation": "linear", "use_bias": false, "kernel_initializer": {"class_name": "Zeros", "config": {"dtype": "float32"}}, "bias_initializer": {"class_name": "Zeros", "config": {"dtype": "float32"}}, "kernel_regularizer": null, "bias_regularizer": null, "activity_regularizer": null, "kernel_constraint": null, "bias_constraint": null}, "inbound_nodes": [[["420", 0, 0, {}]]]}, {"name": "422", "class_name": "BatchNormalization", "config": {"name": "422", "trainable": true, "dtype": "float32", "axis": [1], "momentum": 0.8999999761581421, "epsilon": 9.999999747378752e-06, "center": true, "scale": true, "beta_initializer": {"class_name": "Zeros", "config": {"dtype": "float32"}}, "gamma_initializer": {"class_name": "Ones", "config": {"dtype": "float32"}}, "moving_mean_initializer": {"class_name": "Zeros", "config": {"dtype": "float32"}}, "moving_variance_initializer": {"class_name": "Ones", "config": {"dtype": "float32"}}, "beta_regularizer": null, "gamma_regularizer": null, "beta_constraint": null, "gamma_constraint": null}, "inbound_nodes": [[["421", 0, 0, {}]]]}, {"name": "423", "class_name": "Activation", "config": {"name": "423", "trainable": true, "dtype": "float32", "activation": "relu"}, "inbound_nodes": [[["422", 0, 0, {}]]]}, {"name": "424_pad", "class_name": "ZeroPadding2D", "config": {"name": "424_pad", "trainable": true, "dtype": "float32", "padding": [[1, 1], [1, 1]], "data_format": "channels_first"}, "inbound_nodes": [[["423", 0, 0, {}]]]}, {"name": "424", "class_name": "Conv2D", "config": {"name": "424", "trainable": true, "dtype": "float32", "filters": 256, "kernel_size": [3, 3], "strides": [1, 1], "padding": "valid", "data_format": "channels_first", "dilation_rate": [1, 1], "activation": "linear", "use_bias": false, "kernel_initializer": {"class_name": "Zeros", "config": {"dtype": "float32"}}, "bias_initializer": {"class_name": "Zeros", "config": {"dtype": "float32"}}, "kernel_regularizer": null, "bias_regularizer": null, "activity_regularizer": null, "kernel_constraint": null, "bias_constraint": null}, "inbound_nodes": [[["424_pad", 0, 0, {}]]]}, {"name": "425", "class_name": "BatchNormalization", "config": {"name": "425", "trainable": true, "dtype": "float32", "axis": [1], "momentum": 0.8999999761581421, "epsilon": 9.999999747378752e-06, "center": true, "scale": true, "beta_initializer": {"class_name": "Zeros", "config": {"dtype": "float32"}}, "gamma_initializer": {"class_name": "Ones", "config": {"dtype": "float32"}}, "moving_mean_initializer": {"class_name": "Zeros", "config": {"dtype": "float32"}}, "moving_variance_initializer": {"class_name": "Ones", "config": {"dtype": "float32"}}, "beta_regularizer": null, "gamma_regularizer": null, "beta_constraint": null, "gamma_constraint": null}, "inbound_nodes": [[["424", 0, 0, {}]]]}, {"name": "426", "class_name": "Activation", "config": {"name": "426", "trainable": true, "dtype": "float32", "activation": "relu"}, "inbound_nodes": [[["425", 0, 0, {}]]]}, {"name": "427", "class_name": "Conv2D", "config": {"name": "427", "trainable": true, "dtype": "float32", "filters": 1024, "kernel_size": [1, 1], "strides": [1, 1], "padding": "valid", "data_format": "channels_first", "dilation_rate": [1, 1], "activation": "linear", "use_bias": false, "kernel_initializer": {"class_name": "Zeros", "config": {"dtype": "float32"}}, "bias_initializer": {"class_name": "Zeros", "config": {"dtype": "float32"}}, "kernel_regularizer": null, "bias_regularizer": null, "activity_regularizer": null, "kernel_constraint": null, "bias_constraint": null}, "inbound_nodes": [[["426", 0, 0, {}]]]}, {"name": "429", "class_name": "Conv2D", "config": {"name": "429", "trainable": true, "dtype": "float32", "filters": 1024, "kernel_size": [1, 1], "strides": [1, 1], "padding": "valid", "data_format": "channels_first", "dilation_rate": [1, 1], "activation": "linear", "use_bias": false, "kernel_initializer": {"class_name": "Zeros", "config": {"dtype": "float32"}}, "bias_initializer": {"class_name": "Zeros", "config": {"dtype": "float32"}}, "kernel_regularizer": null, "bias_regularizer": null, "activity_regularizer": null, "kernel_constraint": null, "bias_constraint": null}, "inbound_nodes": [[["420", 0, 0, {}]]]}, {"name": "428", "class_name": "BatchNormalization", "config": {"name": "428", "trainable": true, "dtype": "float32", "axis": [1], "momentum": 0.8999999761581421, "epsilon": 9.999999747378752e-06, "center": true, "scale": true, "beta_initializer": {"class_name": "Zeros", "config": {"dtype": "float32"}}, "gamma_initializer": {"class_name": "Ones", "config": {"dtype": "float32"}}, "moving_mean_initializer": {"class_name": "Zeros", "config": {"dtype": "float32"}}, "moving_variance_initializer": {"class_name": "Ones", "config": {"dtype": "float32"}}, "beta_regularizer": null, "gamma_regularizer": null, "beta_constraint": null, "gamma_constraint": null}, "inbound_nodes": [[["427", 0, 0, {}]]]}, {"name": "430", "class_name": "BatchNormalization", "config": {"name": "430", "trainable": true, "dtype": "float32", "axis": [1], "momentum": 0.8999999761581421, "epsilon": 9.999999747378752e-06, "center": true, "scale": true, "beta_initializer": {"class_name": "Zeros", "config": {"dtype": "float32"}}, "gamma_initializer": {"class_name": "Ones", "config": {"dtype": "float32"}}, "moving_mean_initializer": {"class_name": "Zeros", "config": {"dtype": "float32"}}, "moving_variance_initializer": {"class_name": "Ones", "config": {"dtype": "float32"}}, "beta_regularizer": null, "gamma_regularizer": null, "beta_constraint": null, "gamma_constraint": null}, "inbound_nodes": [[["429", 0, 0, {}]]]}, {"name": "431", "class_name": "Add", "config": {"name": "431", "trainable": true, "dtype": "float32"}, "inbound_nodes": [[["428", 0, 0, {}], ["430", 0, 0, {}]]]}, {"name": "432", "class_name": "Activation", "config": {"name": "432", "trainable": true, "dtype": "float32", "activation": "relu"}, "inbound_nodes": [[["431", 0, 0, {}]]]}, {"name": "433", "class_name": "Conv2D", "config": {"name": "433", "trainable": true, "dtype": "float32", "filters": 256, "kernel_size": [1, 1], "strides": [1, 1], "padding": "valid", "data_format": "channels_first", "dilation_rate": [1, 1], "activation": "linear", "use_bias": false, "kernel_initializer": {"class_name": "Zeros", "config": {"dtype": "float32"}}, "bias_initializer": {"class_name": "Zeros", "config": {"dtype": "float32"}}, "kernel_regularizer": null, "bias_regularizer": null, "activity_regularizer": null, "kernel_constraint": null, "bias_constraint": null}, "inbound_nodes": [[["432", 0, 0, {}]]]}, {"name": "434", "class_name": "BatchNormalization", "config": {"name": "434", "trainable": true, "dtype": "float32", "axis": [1], "momentum": 0.8999999761581421, "epsilon": 9.999999747378752e-06, "center": true, "scale": true, "beta_initializer": {"class_name": "Zeros", "config": {"dtype": "float32"}}, "gamma_initializer": {"class_name": "Ones", "config": {"dtype": "float32"}}, "moving_mean_initializer": {"class_name": "Zeros", "config": {"dtype": "float32"}}, "moving_variance_initializer": {"class_name": "Ones", "config": {"dtype": "float32"}}, "beta_regularizer": null, "gamma_regularizer": null, "beta_constraint": null, "gamma_constraint": null}, "inbound_nodes": [[["433", 0, 0, {}]]]}, {"name": "435", "class_name": "Activation", "config": {"name": "435", "trainable": true, "dtype": "float32", "activation": "relu"}, "inbound_nodes": [[["434", 0, 0, {}]]]}, {"name": "436_pad", "class_name": "ZeroPadding2D", "config": {"name": "436_pad", "trainable": true, "dtype": "float32", "padding": [[1, 1], [1, 1]], "data_format": "channels_first"}, "inbound_nodes": [[["435", 0, 0, {}]]]}, {"name": "436", "class_name": "Conv2D", "config": {"name": "436", "trainable": true, "dtype": "float32", "filters": 256, "kernel_size": [3, 3], "strides": [1, 1], "padding": "valid", "data_format": "channels_first", "dilation_rate": [1, 1], "activation": "linear", "use_bias": false, "kernel_initializer": {"class_name": "Zeros", "config": {"dtype": "float32"}}, "bias_initializer": {"class_name": "Zeros", "config": {"dtype": "float32"}}, "kernel_regularizer": null, "bias_regularizer": null, "activity_regularizer": null, "kernel_constraint": null, "bias_constraint": null}, "inbound_nodes": [[["436_pad", 0, 0, {}]]]}, {"name": "437", "class_name": "BatchNormalization", "config": {"name": "437", "trainable": true, "dtype": "float32", "axis": [1], "momentum": 0.8999999761581421, "epsilon": 9.999999747378752e-06, "center": true, "scale": true, "beta_initializer": {"class_name": "Zeros", "config": {"dtype": "float32"}}, "gamma_initializer": {"class_name": "Ones", "config": {"dtype": "float32"}}, "moving_mean_initializer": {"class_name": "Zeros", "config": {"dtype": "float32"}}, "moving_variance_initializer": {"class_name": "Ones", "config": {"dtype": "float32"}}, "beta_regularizer": null, "gamma_regularizer": null, "beta_constraint": null, "gamma_constraint": null}, "inbound_nodes": [[["436", 0, 0, {}]]]}, {"name": "438", "class_name": "Activation", "config": {"name": "438", "trainable": true, "dtype": "float32", "activation": "relu"}, "inbound_nodes": [[["437", 0, 0, {}]]]}, {"name": "439", "class_name": "Conv2D", "config": {"name": "439", "trainable": true, "dtype": "float32", "filters": 1024, "kernel_size": [1, 1], "strides": [1, 1], "padding": "valid", "data_format": "channels_first", "dilation_rate": [1, 1], "activation": "linear", "use_bias": false, "kernel_initializer": {"class_name": "Zeros", "config": {"dtype": "float32"}}, "bias_initializer": {"class_name": "Zeros", "config": {"dtype": "float32"}}, "kernel_regularizer": null, "bias_regularizer": null, "activity_regularizer": null, "kernel_constraint": null, "bias_constraint": null}, "inbound_nodes": [[["438", 0, 0, {}]]]}, {"name": "440", "class_name": "BatchNormalization", "config": {"name": "440", "trainable": true, "dtype": "float32", "axis": [1], "momentum": 0.8999999761581421, "epsilon": 9.999999747378752e-06, "center": true, "scale": true, "beta_initializer": {"class_name": "Zeros", "config": {"dtype": "float32"}}, "gamma_initializer": {"class_name": "Ones", "config": {"dtype": "float32"}}, "moving_mean_initializer": {"class_name": "Zeros", "config": {"dtype": "float32"}}, "moving_variance_initializer": {"class_name": "Ones", "config": {"dtype": "float32"}}, "beta_regularizer": null, "gamma_regularizer": null, "beta_constraint": null, "gamma_constraint": null}, "inbound_nodes": [[["439", 0, 0, {}]]]}, {"name": "441", "class_name": "Add", "config": {"name": "441", "trainable": true, "dtype": "float32"}, "inbound_nodes": [[["440", 0, 0, {}], ["432", 0, 0, {}]]]}, {"name": "442", "class_name": "Activation", "config": {"name": "442", "trainable": true, "dtype": "float32", "activation": "relu"}, "inbound_nodes": [[["441", 0, 0, {}]]]}, {"name": "443", "class_name": "Conv2D", "config": {"name": "443", "trainable": true, "dtype": "float32", "filters": 256, "kernel_size": [1, 1], "strides": [1, 1], "padding": "valid", "data_format": "channels_first", "dilation_rate": [1, 1], "activation": "linear", "use_bias": false, "kernel_initializer": {"class_name": "Zeros", "config": {"dtype": "float32"}}, "bias_initializer": {"class_name": "Zeros", "config": {"dtype": "float32"}}, "kernel_regularizer": null, "bias_regularizer": null, "activity_regularizer": null, "kernel_constraint": null, "bias_constraint": null}, "inbound_nodes": [[["442", 0, 0, {}]]]}, {"name": "444", "class_name": "BatchNormalization", "config": {"name": "444", "trainable": true, "dtype": "float32", "axis": [1], "momentum": 0.8999999761581421, "epsilon": 9.999999747378752e-06, "center": true, "scale": true, "beta_initializer": {"class_name": "Zeros", "config": {"dtype": "float32"}}, "gamma_initializer": {"class_name": "Ones", "config": {"dtype": "float32"}}, "moving_mean_initializer": {"class_name": "Zeros", "config": {"dtype": "float32"}}, "moving_variance_initializer": {"class_name": "Ones", "config": {"dtype": "float32"}}, "beta_regularizer": null, "gamma_regularizer": null, "beta_constraint": null, "gamma_constraint": null}, "inbound_nodes": [[["443", 0, 0, {}]]]}, {"name": "445", "class_name": "Activation", "config": {"name": "445", "trainable": true, "dtype": "float32", "activation": "relu"}, "inbound_nodes": [[["444", 0, 0, {}]]]}, {"name": "446_pad", "class_name": "ZeroPadding2D", "config": {"name": "446_pad", "trainable": true, "dtype": "float32", "padding": [[1, 1], [1, 1]], "data_format": "channels_first"}, "inbound_nodes": [[["445", 0, 0, {}]]]}, {"name": "446", "class_name": "Conv2D", "config": {"name": "446", "trainable": true, "dtype": "float32", "filters": 256, "kernel_size": [3, 3], "strides": [1, 1], "padding": "valid", "data_format": "channels_first", "dilation_rate": [1, 1], "activation": "linear", "use_bias": false, "kernel_initializer": {"class_name": "Zeros", "config": {"dtype": "float32"}}, "bias_initializer": {"class_name": "Zeros", "config": {"dtype": "float32"}}, "kernel_regularizer": null, "bias_regularizer": null, "activity_regularizer": null, "kernel_constraint": null, "bias_constraint": null}, "inbound_nodes": [[["446_pad", 0, 0, {}]]]}, {"name": "447", "class_name": "BatchNormalization", "config": {"name": "447", "trainable": true, "dtype": "float32", "axis": [1], "momentum": 0.8999999761581421, "epsilon": 9.999999747378752e-06, "center": true, "scale": true, "beta_initializer": {"class_name": "Zeros", "config": {"dtype": "float32"}}, "gamma_initializer": {"class_name": "Ones", "config": {"dtype": "float32"}}, "moving_mean_initializer": {"class_name": "Zeros", "config": {"dtype": "float32"}}, "moving_variance_initializer": {"class_name": "Ones", "config": {"dtype": "float32"}}, "beta_regularizer": null, "gamma_regularizer": null, "beta_constraint": null, "gamma_constraint": null}, "inbound_nodes": [[["446", 0, 0, {}]]]}, {"name": "448", "class_name": "Activation", "config": {"name": "448", "trainable": true, "dtype": "float32", "activation": "relu"}, "inbound_nodes": [[["447", 0, 0, {}]]]}, {"name": "449", "class_name": "Conv2D", "config": {"name": "449", "trainable": true, "dtype": "float32", "filters": 1024, "kernel_size": [1, 1], "strides": [1, 1], "padding": "valid", "data_format": "channels_first", "dilation_rate": [1, 1], "activation": "linear", "use_bias": false, "kernel_initializer": {"class_name": "Zeros", "config": {"dtype": "float32"}}, "bias_initializer": {"class_name": "Zeros", "config": {"dtype": "float32"}}, "kernel_regularizer": null, "bias_regularizer": null, "activity_regularizer": null, "kernel_constraint": null, "bias_constraint": null}, "inbound_nodes": [[["448", 0, 0, {}]]]}, {"name": "450", "class_name": "BatchNormalization", "config": {"name": "450", "trainable": true, "dtype": "float32", "axis": [1], "momentum": 0.8999999761581421, "epsilon": 9.999999747378752e-06, "center": true, "scale": true, "beta_initializer": {"class_name": "Zeros", "config": {"dtype": "float32"}}, "gamma_initializer": {"class_name": "Ones", "config": {"dtype": "float32"}}, "moving_mean_initializer": {"class_name": "Zeros", "config": {"dtype": "float32"}}, "moving_variance_initializer": {"class_name": "Ones", "config": {"dtype": "float32"}}, "beta_regularizer": null, "gamma_regularizer": null, "beta_constraint": null, "gamma_constraint": null}, "inbound_nodes": [[["449", 0, 0, {}]]]}, {"name": "451", "class_name": "Add", "config": {"name": "451", "trainable": true, "dtype": "float32"}, "inbound_nodes": [[["450", 0, 0, {}], ["442", 0, 0, {}]]]}, {"name": "452", "class_name": "Activation", "config": {"name": "452", "trainable": true, "dtype": "float32", "activation": "relu"}, "inbound_nodes": [[["451", 0, 0, {}]]]}, {"name": "453", "class_name": "Conv2D", "config": {"name": "453", "trainable": true, "dtype": "float32", "filters": 256, "kernel_size": [1, 1], "strides": [1, 1], "padding": "valid", "data_format": "channels_first", "dilation_rate": [1, 1], "activation": "linear", "use_bias": false, "kernel_initializer": {"class_name": "Zeros", "config": {"dtype": "float32"}}, "bias_initializer": {"class_name": "Zeros", "config": {"dtype": "float32"}}, "kernel_regularizer": null, "bias_regularizer": null, "activity_regularizer": null, "kernel_constraint": null, "bias_constraint": null}, "inbound_nodes": [[["452", 0, 0, {}]]]}, {"name": "454", "class_name": "BatchNormalization", "config": {"name": "454", "trainable": true, "dtype": "float32", "axis": [1], "momentum": 0.8999999761581421, "epsilon": 9.999999747378752e-06, "center": true, "scale": true, "beta_initializer": {"class_name": "Zeros", "config": {"dtype": "float32"}}, "gamma_initializer": {"class_name": "Ones", "config": {"dtype": "float32"}}, "moving_mean_initializer": {"class_name": "Zeros", "config": {"dtype": "float32"}}, "moving_variance_initializer": {"class_name": "Ones", "config": {"dtype": "float32"}}, "beta_regularizer": null, "gamma_regularizer": null, "beta_constraint": null, "gamma_constraint": null}, "inbound_nodes": [[["453", 0, 0, {}]]]}, {"name": "455", "class_name": "Activation", "config": {"name": "455", "trainable": true, "dtype": "float32", "activation": "relu"}, "inbound_nodes": [[["454", 0, 0, {}]]]}, {"name": "456_pad", "class_name": "ZeroPadding2D", "config": {"name": "456_pad", "trainable": true, "dtype": "float32", "padding": [[1, 1], [1, 1]], "data_format": "channels_first"}, "inbound_nodes": [[["455", 0, 0, {}]]]}, {"name": "456", "class_name": "Conv2D", "config": {"name": "456", "trainable": true, "dtype": "float32", "filters": 256, "kernel_size": [3, 3], "strides": [1, 1], "padding": "valid", "data_format": "channels_first", "dilation_rate": [1, 1], "activation": "linear", "use_bias": false, "kernel_initializer": {"class_name": "Zeros", "config": {"dtype": "float32"}}, "bias_initializer": {"class_name": "Zeros", "config": {"dtype": "float32"}}, "kernel_regularizer": null, "bias_regularizer": null, "activity_regularizer": null, "kernel_constraint": null, "bias_constraint": null}, "inbound_nodes": [[["456_pad", 0, 0, {}]]]}, {"name": "457", "class_name": "BatchNormalization", "config": {"name": "457", "trainable": true, "dtype": "float32", "axis": [1], "momentum": 0.8999999761581421, "epsilon": 9.999999747378752e-06, "center": true, "scale": true, "beta_initializer": {"class_name": "Zeros", "config": {"dtype": "float32"}}, "gamma_initializer": {"class_name": "Ones", "config": {"dtype": "float32"}}, "moving_mean_initializer": {"class_name": "Zeros", "config": {"dtype": "float32"}}, "moving_variance_initializer": {"class_name": "Ones", "config": {"dtype": "float32"}}, "beta_regularizer": null, "gamma_regularizer": null, "beta_constraint": null, "gamma_constraint": null}, "inbound_nodes": [[["456", 0, 0, {}]]]}, {"name": "458", "class_name": "Activation", "config": {"name": "458", "trainable": true, "dtype": "float32", "activation": "relu"}, "inbound_nodes": [[["457", 0, 0, {}]]]}, {"name": "459", "class_name": "Conv2D", "config": {"name": "459", "trainable": true, "dtype": "float32", "filters": 1024, "kernel_size": [1, 1], "strides": [1, 1], "padding": "valid", "data_format": "channels_first", "dilation_rate": [1, 1], "activation": "linear", "use_bias": false, "kernel_initializer": {"class_name": "Zeros", "config": {"dtype": "float32"}}, "bias_initializer": {"class_name": "Zeros", "config": {"dtype": "float32"}}, "kernel_regularizer": null, "bias_regularizer": null, "activity_regularizer": null, "kernel_constraint": null, "bias_constraint": null}, "inbound_nodes": [[["458", 0, 0, {}]]]}, {"name": "460", "class_name": "BatchNormalization", "config": {"name": "460", "trainable": true, "dtype": "float32", "axis": [1], "momentum": 0.8999999761581421, "epsilon": 9.999999747378752e-06, "center": true, "scale": true, "beta_initializer": {"class_name": "Zeros", "config": {"dtype": "float32"}}, "gamma_initializer": {"class_name": "Ones", "config": {"dtype": "float32"}}, "moving_mean_initializer": {"class_name": "Zeros", "config": {"dtype": "float32"}}, "moving_variance_initializer": {"class_name": "Ones", "config": {"dtype": "float32"}}, "beta_regularizer": null, "gamma_regularizer": null, "beta_constraint": null, "gamma_constraint": null}, "inbound_nodes": [[["459", 0, 0, {}]]]}, {"name": "461", "class_name": "Add", "config": {"name": "461", "trainable": true, "dtype": "float32"}, "inbound_nodes": [[["460", 0, 0, {}], ["452", 0, 0, {}]]]}, {"name": "462", "class_name": "Activation", "config": {"name": "462", "trainable": true, "dtype": "float32", "activation": "relu"}, "inbound_nodes": [[["461", 0, 0, {}]]]}, {"name": "463", "class_name": "Conv2D", "config": {"name": "463", "trainable": true, "dtype": "float32", "filters": 256, "kernel_size": [1, 1], "strides": [1, 1], "padding": "valid", "data_format": "channels_first", "dilation_rate": [1, 1], "activation": "linear", "use_bias": false, "kernel_initializer": {"class_name": "Zeros", "config": {"dtype": "float32"}}, "bias_initializer": {"class_name": "Zeros", "config": {"dtype": "float32"}}, "kernel_regularizer": null, "bias_regularizer": null, "activity_regularizer": null, "kernel_constraint": null, "bias_constraint": null}, "inbound_nodes": [[["462", 0, 0, {}]]]}, {"name": "464", "class_name": "BatchNormalization", "config": {"name": "464", "trainable": true, "dtype": "float32", "axis": [1], "momentum": 0.8999999761581421, "epsilon": 9.999999747378752e-06, "center": true, "scale": true, "beta_initializer": {"class_name": "Zeros", "config": {"dtype": "float32"}}, "gamma_initializer": {"class_name": "Ones", "config": {"dtype": "float32"}}, "moving_mean_initializer": {"class_name": "Zeros", "config": {"dtype": "float32"}}, "moving_variance_initializer": {"class_name": "Ones", "config": {"dtype": "float32"}}, "beta_regularizer": null, "gamma_regularizer": null, "beta_constraint": null, "gamma_constraint": null}, "inbound_nodes": [[["463", 0, 0, {}]]]}, {"name": "465", "class_name": "Activation", "config": {"name": "465", "trainable": true, "dtype": "float32", "activation": "relu"}, "inbound_nodes": [[["464", 0, 0, {}]]]}, {"name": "466_pad", "class_name": "ZeroPadding2D", "config": {"name": "466_pad", "trainable": true, "dtype": "float32", "padding": [[1, 1], [1, 1]], "data_format": "channels_first"}, "inbound_nodes": [[["465", 0, 0, {}]]]}, {"name": "466", "class_name": "Conv2D", "config": {"name": "466", "trainable": true, "dtype": "float32", "filters": 256, "kernel_size": [3, 3], "strides": [1, 1], "padding": "valid", "data_format": "channels_first", "dilation_rate": [1, 1], "activation": "linear", "use_bias": false, "kernel_initializer": {"class_name": "Zeros", "config": {"dtype": "float32"}}, "bias_initializer": {"class_name": "Zeros", "config": {"dtype": "float32"}}, "kernel_regularizer": null, "bias_regularizer": null, "activity_regularizer": null, "kernel_constraint": null, "bias_constraint": null}, "inbound_nodes": [[["466_pad", 0, 0, {}]]]}, {"name": "467", "class_name": "BatchNormalization", "config": {"name": "467", "trainable": true, "dtype": "float32", "axis": [1], "momentum": 0.8999999761581421, "epsilon": 9.999999747378752e-06, "center": true, "scale": true, "beta_initializer": {"class_name": "Zeros", "config": {"dtype": "float32"}}, "gamma_initializer": {"class_name": "Ones", "config": {"dtype": "float32"}}, "moving_mean_initializer": {"class_name": "Zeros", "config": {"dtype": "float32"}}, "moving_variance_initializer": {"class_name": "Ones", "config": {"dtype": "float32"}}, "beta_regularizer": null, "gamma_regularizer": null, "beta_constraint": null, "gamma_constraint": null}, "inbound_nodes": [[["466", 0, 0, {}]]]}, {"name": "468", "class_name": "Activation", "config": {"name": "468", "trainable": true, "dtype": "float32", "activation": "relu"}, "inbound_nodes": [[["467", 0, 0, {}]]]}, {"name": "469", "class_name": "Conv2D", "config": {"name": "469", "trainable": true, "dtype": "float32", "filters": 1024, "kernel_size": [1, 1], "strides": [1, 1], "padding": "valid", "data_format": "channels_first", "dilation_rate": [1, 1], "activation": "linear", "use_bias": false, "kernel_initializer": {"class_name": "Zeros", "config": {"dtype": "float32"}}, "bias_initializer": {"class_name": "Zeros", "config": {"dtype": "float32"}}, "kernel_regularizer": null, "bias_regularizer": null, "activity_regularizer": null, "kernel_constraint": null, "bias_constraint": null}, "inbound_nodes": [[["468", 0, 0, {}]]]}, {"name": "470", "class_name": "BatchNormalization", "config": {"name": "470", "trainable": true, "dtype": "float32", "axis": [1], "momentum": 0.8999999761581421, "epsilon": 9.999999747378752e-06, "center": true, "scale": true, "beta_initializer": {"class_name": "Zeros", "config": {"dtype": "float32"}}, "gamma_initializer": {"class_name": "Ones", "config": {"dtype": "float32"}}, "moving_mean_initializer": {"class_name": "Zeros", "config": {"dtype": "float32"}}, "moving_variance_initializer": {"class_name": "Ones", "config": {"dtype": "float32"}}, "beta_regularizer": null, "gamma_regularizer": null, "beta_constraint": null, "gamma_constraint": null}, "inbound_nodes": [[["469", 0, 0, {}]]]}, {"name": "471", "class_name": "Add", "config": {"name": "471", "trainable": true, "dtype": "float32"}, "inbound_nodes": [[["470", 0, 0, {}], ["462", 0, 0, {}]]]}, {"name": "472", "class_name": "Activation", "config": {"name": "472", "trainable": true, "dtype": "float32", "activation": "relu"}, "inbound_nodes": [[["471", 0, 0, {}]]]}, {"name": "473", "class_name": "Conv2D", "config": {"name": "473", "trainable": true, "dtype": "float32", "filters": 256, "kernel_size": [1, 1], "strides": [1, 1], "padding": "valid", "data_format": "channels_first", "dilation_rate": [1, 1], "activation": "linear", "use_bias": false, "kernel_initializer": {"class_name": "Zeros", "config": {"dtype": "float32"}}, "bias_initializer": {"class_name": "Zeros", "config": {"dtype": "float32"}}, "kernel_regularizer": null, "bias_regularizer": null, "activity_regularizer": null, "kernel_constraint": null, "bias_constraint": null}, "inbound_nodes": [[["472", 0, 0, {}]]]}, {"name": "474", "class_name": "BatchNormalization", "config": {"name": "474", "trainable": true, "dtype": "float32", "axis": [1], "momentum": 0.8999999761581421, "epsilon": 9.999999747378752e-06, "center": true, "scale": true, "beta_initializer": {"class_name": "Zeros", "config": {"dtype": "float32"}}, "gamma_initializer": {"class_name": "Ones", "config": {"dtype": "float32"}}, "moving_mean_initializer": {"class_name": "Zeros", "config": {"dtype": "float32"}}, "moving_variance_initializer": {"class_name": "Ones", "config": {"dtype": "float32"}}, "beta_regularizer": null, "gamma_regularizer": null, "beta_constraint": null, "gamma_constraint": null}, "inbound_nodes": [[["473", 0, 0, {}]]]}, {"name": "475", "class_name": "Activation", "config": {"name": "475", "trainable": true, "dtype": "float32", "activation": "relu"}, "inbound_nodes": [[["474", 0, 0, {}]]]}, {"name": "476_pad", "class_name": "ZeroPadding2D", "config": {"name": "476_pad", "trainable": true, "dtype": "float32", "padding": [[1, 1], [1, 1]], "data_format": "channels_first"}, "inbound_nodes": [[["475", 0, 0, {}]]]}, {"name": "476", "class_name": "Conv2D", "config": {"name": "476", "trainable": true, "dtype": "float32", "filters": 256, "kernel_size": [3, 3], "strides": [1, 1], "padding": "valid", "data_format": "channels_first", "dilation_rate": [1, 1], "activation": "linear", "use_bias": false, "kernel_initializer": {"class_name": "Zeros", "config": {"dtype": "float32"}}, "bias_initializer": {"class_name": "Zeros", "config": {"dtype": "float32"}}, "kernel_regularizer": null, "bias_regularizer": null, "activity_regularizer": null, "kernel_constraint": null, "bias_constraint": null}, "inbound_nodes": [[["476_pad", 0, 0, {}]]]}, {"name": "477", "class_name": "BatchNormalization", "config": {"name": "477", "trainable": true, "dtype": "float32", "axis": [1], "momentum": 0.8999999761581421, "epsilon": 9.999999747378752e-06, "center": true, "scale": true, "beta_initializer": {"class_name": "Zeros", "config": {"dtype": "float32"}}, "gamma_initializer": {"class_name": "Ones", "config": {"dtype": "float32"}}, "moving_mean_initializer": {"class_name": "Zeros", "config": {"dtype": "float32"}}, "moving_variance_initializer": {"class_name": "Ones", "config": {"dtype": "float32"}}, "beta_regularizer": null, "gamma_regularizer": null, "beta_constraint": null, "gamma_constraint": null}, "inbound_nodes": [[["476", 0, 0, {}]]]}, {"name": "478", "class_name": "Activation", "config": {"name": "478", "trainable": true, "dtype": "float32", "activation": "relu"}, "inbound_nodes": [[["477", 0, 0, {}]]]}, {"name": "479", "class_name": "Conv2D", "config": {"name": "479", "trainable": true, "dtype": "float32", "filters": 1024, "kernel_size": [1, 1], "strides": [1, 1], "padding": "valid", "data_format": "channels_first", "dilation_rate": [1, 1], "activation": "linear", "use_bias": false, "kernel_initializer": {"class_name": "Zeros", "config": {"dtype": "float32"}}, "bias_initializer": {"class_name": "Zeros", "config": {"dtype": "float32"}}, "kernel_regularizer": null, "bias_regularizer": null, "activity_regularizer": null, "kernel_constraint": null, "bias_constraint": null}, "inbound_nodes": [[["478", 0, 0, {}]]]}, {"name": "480", "class_name": "BatchNormalization", "config": {"name": "480", "trainable": true, "dtype": "float32", "axis": [1], "momentum": 0.8999999761581421, "epsilon": 9.999999747378752e-06, "center": true, "scale": true, "beta_initializer": {"class_name": "Zeros", "config": {"dtype": "float32"}}, "gamma_initializer": {"class_name": "Ones", "config": {"dtype": "float32"}}, "moving_mean_initializer": {"class_name": "Zeros", "config": {"dtype": "float32"}}, "moving_variance_initializer": {"class_name": "Ones", "config": {"dtype": "float32"}}, "beta_regularizer": null, "gamma_regularizer": null, "beta_constraint": null, "gamma_constraint": null}, "inbound_nodes": [[["479", 0, 0, {}]]]}, {"name": "481", "class_name": "Add", "config": {"name": "481", "trainable": true, "dtype": "float32"}, "inbound_nodes": [[["480", 0, 0, {}], ["472", 0, 0, {}]]]}, {"name": "482", "class_name": "Activation", "config": {"name": "482", "trainable": true, "dtype": "float32", "activation": "relu"}, "inbound_nodes": [[["481", 0, 0, {}]]]}, {"name": "483", "class_name": "Conv2D", "config": {"name": "483", "trainable": true, "dtype": "float32", "filters": 256, "kernel_size": [1, 1], "strides": [1, 1], "padding": "valid", "data_format": "channels_first", "dilation_rate": [1, 1], "activation": "linear", "use_bias": false, "kernel_initializer": {"class_name": "Zeros", "config": {"dtype": "float32"}}, "bias_initializer": {"class_name": "Zeros", "config": {"dtype": "float32"}}, "kernel_regularizer": null, "bias_regularizer": null, "activity_regularizer": null, "kernel_constraint": null, "bias_constraint": null}, "inbound_nodes": [[["482", 0, 0, {}]]]}, {"name": "484", "class_name": "BatchNormalization", "config": {"name": "484", "trainable": true, "dtype": "float32", "axis": [1], "momentum": 0.8999999761581421, "epsilon": 9.999999747378752e-06, "center": true, "scale": true, "beta_initializer": {"class_name": "Zeros", "config": {"dtype": "float32"}}, "gamma_initializer": {"class_name": "Ones", "config": {"dtype": "float32"}}, "moving_mean_initializer": {"class_name": "Zeros", "config": {"dtype": "float32"}}, "moving_variance_initializer": {"class_name": "Ones", "config": {"dtype": "float32"}}, "beta_regularizer": null, "gamma_regularizer": null, "beta_constraint": null, "gamma_constraint": null}, "inbound_nodes": [[["483", 0, 0, {}]]]}, {"name": "485", "class_name": "Activation", "config": {"name": "485", "trainable": true, "dtype": "float32", "activation": "relu"}, "inbound_nodes": [[["484", 0, 0, {}]]]}, {"name": "486_pad", "class_name": "ZeroPadding2D", "config": {"name": "486_pad", "trainable": true, "dtype": "float32", "padding": [[1, 1], [1, 1]], "data_format": "channels_first"}, "inbound_nodes": [[["485", 0, 0, {}]]]}, {"name": "486", "class_name": "Conv2D", "config": {"name": "486", "trainable": true, "dtype": "float32", "filters": 512, "kernel_size": [3, 3], "strides": [2, 2], "padding": "valid", "data_format": "channels_first", "dilation_rate": [1, 1], "activation": "linear", "use_bias": false, "kernel_initializer": {"class_name": "Zeros", "config": {"dtype": "float32"}}, "bias_initializer": {"class_name": "Zeros", "config": {"dtype": "float32"}}, "kernel_regularizer": null, "bias_regularizer": null, "activity_regularizer": null, "kernel_constraint": null, "bias_constraint": null}, "inbound_nodes": [[["486_pad", 0, 0, {}]]]}, {"name": "487", "class_name": "BatchNormalization", "config": {"name": "487", "trainable": true, "dtype": "float32", "axis": [1], "momentum": 0.8999999761581421, "epsilon": 9.999999747378752e-06, "center": true, "scale": true, "beta_initializer": {"class_name": "Zeros", "config": {"dtype": "float32"}}, "gamma_initializer": {"class_name": "Ones", "config": {"dtype": "float32"}}, "moving_mean_initializer": {"class_name": "Zeros", "config": {"dtype": "float32"}}, "moving_variance_initializer": {"class_name": "Ones", "config": {"dtype": "float32"}}, "beta_regularizer": null, "gamma_regularizer": null, "beta_constraint": null, "gamma_constraint": null}, "inbound_nodes": [[["486", 0, 0, {}]]]}, {"name": "488", "class_name": "Activation", "config": {"name": "488", "trainable": true, "dtype": "float32", "activation": "relu"}, "inbound_nodes": [[["487", 0, 0, {}]]]}, {"name": "489", "class_name": "Conv2D", "config": {"name": "489", "trainable": true, "dtype": "float32", "filters": 256, "kernel_size": [1, 1], "strides": [1, 1], "padding": "valid", "data_format": "channels_first", "dilation_rate": [1, 1], "activation": "linear", "use_bias": false, "kernel_initializer": {"class_name": "Zeros", "config": {"dtype": "float32"}}, "bias_initializer": {"class_name": "Zeros", "config": {"dtype": "float32"}}, "kernel_regularizer": null, "bias_regularizer": null, "activity_regularizer": null, "kernel_constraint": null, "bias_constraint": null}, "inbound_nodes": [[["488", 0, 0, {}]]]}, {"name": "490", "class_name": "BatchNormalization", "config": {"name": "490", "trainable": true, "dtype": "float32", "axis": [1], "momentum": 0.8999999761581421, "epsilon": 9.999999747378752e-06, "center": true, "scale": true, "beta_initializer": {"class_name": "Zeros", "config": {"dtype": "float32"}}, "gamma_initializer": {"class_name": "Ones", "config": {"dtype": "float32"}}, "moving_mean_initializer": {"class_name": "Zeros", "config": {"dtype": "float32"}}, "moving_variance_initializer": {"class_name": "Ones", "config": {"dtype": "float32"}}, "beta_regularizer": null, "gamma_regularizer": null, "beta_constraint": null, "gamma_constraint": null}, "inbound_nodes": [[["489", 0, 0, {}]]]}, {"name": "491", "class_name": "Activation", "config": {"name": "491", "trainable": true, "dtype": "float32", "activation": "relu"}, "inbound_nodes": [[["490", 0, 0, {}]]]}, {"name": "492_pad", "class_name": "ZeroPadding2D", "config": {"name": "492_pad", "trainable": true, "dtype": "float32", "padding": [[1, 1], [1, 1]], "data_format": "channels_first"}, "inbound_nodes": [[["491", 0, 0, {}]]]}, {"name": "492", "class_name": "Conv2D", "config": {"name": "492", "trainable": true, "dtype": "float32", "filters": 512, "kernel_size": [3, 3], "strides": [2, 2], "padding": "valid", "data_format": "channels_first", "dilation_rate": [1, 1], "activation": "linear", "use_bias": false, "kernel_initializer": {"class_name": "Zeros", "config": {"dtype": "float32"}}, "bias_initializer": {"class_name": "Zeros", "config": {"dtype": "float32"}}, "kernel_regularizer": null, "bias_regularizer": null, "activity_regularizer": null, "kernel_constraint": null, "bias_constraint": null}, "inbound_nodes": [[["492_pad", 0, 0, {}]]]}, {"name": "493", "class_name": "BatchNormalization", "config": {"name": "493", "trainable": true, "dtype": "float32", "axis": [1], "momentum": 0.8999999761581421, "epsilon": 9.999999747378752e-06, "center": true, "scale": true, "beta_initializer": {"class_name": "Zeros", "config": {"dtype": "float32"}}, "gamma_initializer": {"class_name": "Ones", "config": {"dtype": "float32"}}, "moving_mean_initializer": {"class_name": "Zeros", "config": {"dtype": "float32"}}, "moving_variance_initializer": {"class_name": "Ones", "config": {"dtype": "float32"}}, "beta_regularizer": null, "gamma_regularizer": null, "beta_constraint": null, "gamma_constraint": null}, "inbound_nodes": [[["492", 0, 0, {}]]]}, {"name": "494", "class_name": "Activation", "config": {"name": "494", "trainable": true, "dtype": "float32", "activation": "relu"}, "inbound_nodes": [[["493", 0, 0, {}]]]}, {"name": "495", "class_name": "Conv2D", "config": {"name": "495", "trainable": true, "dtype": "float32", "filters": 128, "kernel_size": [1, 1], "strides": [1, 1], "padding": "valid", "data_format": "channels_first", "dilation_rate": [1, 1], "activation": "linear", "use_bias": false, "kernel_initializer": {"class_name": "Zeros", "config": {"dtype": "float32"}}, "bias_initializer": {"class_name": "Zeros", "config": {"dtype": "float32"}}, "kernel_regularizer": null, "bias_regularizer": null, "activity_regularizer": null, "kernel_constraint": null, "bias_constraint": null}, "inbound_nodes": [[["494", 0, 0, {}]]]}, {"name": "496", "class_name": "BatchNormalization", "config": {"name": "496", "trainable": true, "dtype": "float32", "axis": [1], "momentum": 0.8999999761581421, "epsilon": 9.999999747378752e-06, "center": true, "scale": true, "beta_initializer": {"class_name": "Zeros", "config": {"dtype": "float32"}}, "gamma_initializer": {"class_name": "Ones", "config": {"dtype": "float32"}}, "moving_mean_initializer": {"class_name": "Zeros", "config": {"dtype": "float32"}}, "moving_variance_initializer": {"class_name": "Ones", "config": {"dtype": "float32"}}, "beta_regularizer": null, "gamma_regularizer": null, "beta_constraint": null, "gamma_constraint": null}, "inbound_nodes": [[["495", 0, 0, {}]]]}, {"name": "497", "class_name": "Activation", "config": {"name": "497", "trainable": true, "dtype": "float32", "activation": "relu"}, "inbound_nodes": [[["496", 0, 0, {}]]]}, {"name": "498_pad", "class_name": "ZeroPadding2D", "config": {"name": "498_pad", "trainable": true, "dtype": "float32", "padding": [[1, 1], [1, 1]], "data_format": "channels_first"}, "inbound_nodes": [[["497", 0, 0, {}]]]}, {"name": "498", "class_name": "Conv2D", "config": {"name": "498", "trainable": true, "dtype": "float32", "filters": 256, "kernel_size": [3, 3], "strides": [2, 2], "padding": "valid", "data_format": "channels_first", "dilation_rate": [1, 1], "activation": "linear", "use_bias": false, "kernel_initializer": {"class_name": "Zeros", "config": {"dtype": "float32"}}, "bias_initializer": {"class_name": "Zeros", "config": {"dtype": "float32"}}, "kernel_regularizer": null, "bias_regularizer": null, "activity_regularizer": null, "kernel_constraint": null, "bias_constraint": null}, "inbound_nodes": [[["498_pad", 0, 0, {}]]]}, {"name": "499", "class_name": "BatchNormalization", "config": {"name": "499", "trainable": true, "dtype": "float32", "axis": [1], "momentum": 0.8999999761581421, "epsilon": 9.999999747378752e-06, "center": true, "scale": true, "beta_initializer": {"class_name": "Zeros", "config": {"dtype": "float32"}}, "gamma_initializer": {"class_name": "Ones", "config": {"dtype": "float32"}}, "moving_mean_initializer": {"class_name": "Zeros", "config": {"dtype": "float32"}}, "moving_variance_initializer": {"class_name": "Ones", "config": {"dtype": "float32"}}, "beta_regularizer": null, "gamma_regularizer": null, "beta_constraint": null, "gamma_constraint": null}, "inbound_nodes": [[["498", 0, 0, {}]]]}, {"name": "500", "class_name": "Activation", "config": {"name": "500", "trainable": true, "dtype": "float32", "activation": "relu"}, "inbound_nodes": [[["499", 0, 0, {}]]]}, {"name": "501", "class_name": "Conv2D", "config": {"name": "501", "trainable": true, "dtype": "float32", "filters": 128, "kernel_size": [1, 1], "strides": [1, 1], "padding": "valid", "data_format": "channels_first", "dilation_rate": [1, 1], "activation": "linear", "use_bias": false, "kernel_initializer": {"class_name": "Zeros", "config": {"dtype": "float32"}}, "bias_initializer": {"class_name": "Zeros", "config": {"dtype": "float32"}}, "kernel_regularizer": null, "bias_regularizer": null, "activity_regularizer": null, "kernel_constraint": null, "bias_constraint": null}, "inbound_nodes": [[["500", 0, 0, {}]]]}, {"name": "502", "class_name": "BatchNormalization", "config": {"name": "502", "trainable": true, "dtype": "float32", "axis": [1], "momentum": 0.8999999761581421, "epsilon": 9.999999747378752e-06, "center": true, "scale": true, "beta_initializer": {"class_name": "Zeros", "config": {"dtype": "float32"}}, "gamma_initializer": {"class_name": "Ones", "config": {"dtype": "float32"}}, "moving_mean_initializer": {"class_name": "Zeros", "config": {"dtype": "float32"}}, "moving_variance_initializer": {"class_name": "Ones", "config": {"dtype": "float32"}}, "beta_regularizer": null, "gamma_regularizer": null, "beta_constraint": null, "gamma_constraint": null}, "inbound_nodes": [[["501", 0, 0, {}]]]}, {"name": "503", "class_name": "Activation", "config": {"name": "503", "trainable": true, "dtype": "float32", "activation": "relu"}, "inbound_nodes": [[["502", 0, 0, {}]]]}, {"name": "504", "class_name": "Conv2D", "config": {"name": "504", "trainable": true, "dtype": "float32", "filters": 256, "kernel_size": [3, 3], "strides": [1, 1], "padding": "valid", "data_format": "channels_first", "dilation_rate": [1, 1], "activation": "linear", "use_bias": false, "kernel_initializer": {"class_name": "Zeros", "config": {"dtype": "float32"}}, "bias_initializer": {"class_name": "Zeros", "config": {"dtype": "float32"}}, "kernel_regularizer": null, "bias_regularizer": null, "activity_regularizer": null, "kernel_constraint": null, "bias_constraint": null}, "inbound_nodes": [[["503", 0, 0, {}]]]}, {"name": "505", "class_name": "BatchNormalization", "config": {"name": "505", "trainable": true, "dtype": "float32", "axis": [1], "momentum": 0.8999999761581421, "epsilon": 9.999999747378752e-06, "center": true, "scale": true, "beta_initializer": {"class_name": "Zeros", "config": {"dtype": "float32"}}, "gamma_initializer": {"class_name": "Ones", "config": {"dtype": "float32"}}, "moving_mean_initializer": {"class_name": "Zeros", "config": {"dtype": "float32"}}, "moving_variance_initializer": {"class_name": "Ones", "config": {"dtype": "float32"}}, "beta_regularizer": null, "gamma_regularizer": null, "beta_constraint": null, "gamma_constraint": null}, "inbound_nodes": [[["504", 0, 0, {}]]]}, {"name": "506", "class_name": "Activation", "config": {"name": "506", "trainable": true, "dtype": "float32", "activation": "relu"}, "inbound_nodes": [[["505", 0, 0, {}]]]}, {"name": "507", "class_name": "Conv2D", "config": {"name": "507", "trainable": true, "dtype": "float32", "filters": 128, "kernel_size": [1, 1], "strides": [1, 1], "padding": "valid", "data_format": "channels_first", "dilation_rate": [1, 1], "activation": "linear", "use_bias": false, "kernel_initializer": {"class_name": "Zeros", "config": {"dtype": "float32"}}, "bias_initializer": {"class_name": "Zeros", "config": {"dtype": "float32"}}, "kernel_regularizer": null, "bias_regularizer": null, "activity_regularizer": null, "kernel_constraint": null, "bias_constraint": null}, "inbound_nodes": [[["506", 0, 0, {}]]]}, {"name": "508", "class_name": "BatchNormalization", "config": {"name": "508", "trainable": true, "dtype": "float32", "axis": [1], "momentum": 0.8999999761581421, "epsilon": 9.999999747378752e-06, "center": true, "scale": true, "beta_initializer": {"class_name": "Zeros", "config": {"dtype": "float32"}}, "gamma_initializer": {"class_name": "Ones", "config": {"dtype": "float32"}}, "moving_mean_initializer": {"class_name": "Zeros", "config": {"dtype": "float32"}}, "moving_variance_initializer": {"class_name": "Ones", "config": {"dtype": "float32"}}, "beta_regularizer": null, "gamma_regularizer": null, "beta_constraint": null, "gamma_constraint": null}, "inbound_nodes": [[["507", 0, 0, {}]]]}, {"name": "509", "class_name": "Activation", "config": {"name": "509", "trainable": true, "dtype": "float32", "activation": "relu"}, "inbound_nodes": [[["508", 0, 0, {}]]]}, {"name": "510", "class_name": "Conv2D", "config": {"name": "510", "trainable": true, "dtype": "float32", "filters": 256, "kernel_size": [3, 3], "strides": [1, 1], "padding": "valid", "data_format": "channels_first", "dilation_rate": [1, 1], "activation": "linear", "use_bias": false, "kernel_initializer": {"class_name": "Zeros", "config": {"dtype": "float32"}}, "bias_initializer": {"class_name": "Zeros", "config": {"dtype": "float32"}}, "kernel_regularizer": null, "bias_regularizer": null, "activity_regularizer": null, "kernel_constraint": null, "bias_constraint": null}, "inbound_nodes": [[["509", 0, 0, {}]]]}, {"name": "511", "class_name": "BatchNormalization", "config": {"name": "511", "trainable": true, "dtype": "float32", "axis": [1], "momentum": 0.8999999761581421, "epsilon": 9.999999747378752e-06, "center": true, "scale": true, "beta_initializer": {"class_name": "Zeros", "config": {"dtype": "float32"}}, "gamma_initializer": {"class_name": "Ones", "config": {"dtype": "float32"}}, "moving_mean_initializer": {"class_name": "Zeros", "config": {"dtype": "float32"}}, "moving_variance_initializer": {"class_name": "Ones", "config": {"dtype": "float32"}}, "beta_regularizer": null, "gamma_regularizer": null, "beta_constraint": null, "gamma_constraint": null}, "inbound_nodes": [[["510", 0, 0, {}]]]}, {"name": "512", "class_name": "Activation", "config": {"name": "512", "trainable": true, "dtype": "float32", "activation": "relu"}, "inbound_nodes": [[["511", 0, 0, {}]]]}, {"name": "513_pad", "class_name": "ZeroPadding2D", "config": {"name": "513_pad", "trainable": true, "dtype": "float32", "padding": [[1, 1], [1, 1]], "data_format": "channels_first"}, "inbound_nodes": [[["482", 0, 0, {}]]]}, {"name": "535_pad", "class_name": "ZeroPadding2D", "config": {"name": "535_pad", "trainable": true, "dtype": "float32", "padding": [[1, 1], [1, 1]], "data_format": "channels_first"}, "inbound_nodes": [[["488", 0, 0, {}]]]}, {"name": "557_pad", "class_name": "ZeroPadding2D", "config": {"name": "557_pad", "trainable": true, "dtype": "float32", "padding": [[1, 1], [1, 1]], "data_format": "channels_first"}, "inbound_nodes": [[["494", 0, 0, {}]]]}, {"name": "579_pad", "class_name": "ZeroPadding2D", "config": {"name": "579_pad", "trainable": true, "dtype": "float32", "padding": [[1, 1], [1, 1]], "data_format": "channels_first"}, "inbound_nodes": [[["500", 0, 0, {}]]]}, {"name": "601_pad", "class_name": "ZeroPadding2D", "config": {"name": "601_pad", "trainable": true, "dtype": "float32", "padding": [[1, 1], [1, 1]], "data_format": "channels_first"}, "inbound_nodes": [[["506", 0, 0, {}]]]}, {"name": "623_pad", "class_name": "ZeroPadding2D", "config": {"name": "623_pad", "trainable": true, "dtype": "float32", "padding": [[1, 1], [1, 1]], "data_format": "channels_first"}, "inbound_nodes": [[["512", 0, 0, {}]]]}, {"name": "524_pad", "class_name": "ZeroPadding2D", "config": {"name": "524_pad", "trainable": true, "dtype": "float32", "padding": [[1, 1], [1, 1]], "data_format": "channels_first"}, "inbound_nodes": [[["482", 0, 0, {}]]]}, {"name": "546_pad", "class_name": "ZeroPadding2D", "config": {"name": "546_pad", "trainable": true, "dtype": "float32", "padding": [[1, 1], [1, 1]], "data_format": "channels_first"}, "inbound_nodes": [[["488", 0, 0, {}]]]}, {"name": "568_pad", "class_name": "ZeroPadding2D", "config": {"name": "568_pad", "trainable": true, "dtype": "float32", "padding": [[1, 1], [1, 1]], "data_format": "channels_first"}, "inbound_nodes": [[["494", 0, 0, {}]]]}, {"name": "590_pad", "class_name": "ZeroPadding2D", "config": {"name": "590_pad", "trainable": true, "dtype": "float32", "padding": [[1, 1], [1, 1]], "data_format": "channels_first"}, "inbound_nodes": [[["500", 0, 0, {}]]]}, {"name": "612_pad", "class_name": "ZeroPadding2D", "config": {"name": "612_pad", "trainable": true, "dtype": "float32", "padding": [[1, 1], [1, 1]], "data_format": "channels_first"}, "inbound_nodes": [[["506", 0, 0, {}]]]}, {"name": "634_pad", "class_name": "ZeroPadding2D", "config": {"name": "634_pad", "trainable": true, "dtype": "float32", "padding": [[1, 1], [1, 1]], "data_format": "channels_first"}, "inbound_nodes": [[["512", 0, 0, {}]]]}, {"name": "513", "class_name": "Conv2D", "config": {"name": "513", "trainable": true, "dtype": "float32", "filters": 16, "kernel_size": [3, 3], "strides": [1, 1], "padding": "valid", "data_format": "channels_first", "dilation_rate": [1, 1], "activation": "linear", "use_bias": true, "kernel_initializer": {"class_name": "Zeros", "config": {"dtype": "float32"}}, "bias_initializer": {"class_name": "Zeros", "config": {"dtype": "float32"}}, "kernel_regularizer": null, "bias_regularizer": null, "activity_regularizer": null, "kernel_constraint": null, "bias_constraint": null}, "inbound_nodes": [[["513_pad", 0, 0, {}]]]}, {"name": "535", "class_name": "Conv2D", "config": {"name": "535", "trainable": true, "dtype": "float32", "filters": 24, "kernel_size": [3, 3], "strides": [1, 1], "padding": "valid", "data_format": "channels_first", "dilation_rate": [1, 1], "activation": "linear", "use_bias": true, "kernel_initializer": {"class_name": "Zeros", "config": {"dtype": "float32"}}, "bias_initializer": {"class_name": "Zeros", "config": {"dtype": "float32"}}, "kernel_regularizer": null, "bias_regularizer": null, "activity_regularizer": null, "kernel_constraint": null, "bias_constraint": null}, "inbound_nodes": [[["535_pad", 0, 0, {}]]]}, {"name": "557", "class_name": "Conv2D", "config": {"name": "557", "trainable": true, "dtype": "float32", "filters": 24, "kernel_size": [3, 3], "strides": [1, 1], "padding": "valid", "data_format": "channels_first", "dilation_rate": [1, 1], "activation": "linear", "use_bias": true, "kernel_initializer": {"class_name": "Zeros", "config": {"dtype": "float32"}}, "bias_initializer": {"class_name": "Zeros", "config": {"dtype": "float32"}}, "kernel_regularizer": null, "bias_regularizer": null, "activity_regularizer": null, "kernel_constraint": null, "bias_constraint": null}, "inbound_nodes": [[["557_pad", 0, 0, {}]]]}, {"name": "579", "class_name": "Conv2D", "config": {"name": "579", "trainable": true, "dtype": "float32", "filters": 24, "kernel_size": [3, 3], "strides": [1, 1], "padding": "valid", "data_format": "channels_first", "dilation_rate": [1, 1], "activation": "linear", "use_bias": true, "kernel_initializer": {"class_name": "Zeros", "config": {"dtype": "float32"}}, "bias_initializer": {"class_name": "Zeros", "config": {"dtype": "float32"}}, "kernel_regularizer": null, "bias_regularizer": null, "activity_regularizer": null, "kernel_constraint": null, "bias_constraint": null}, "inbound_nodes": [[["579_pad", 0, 0, {}]]]}, {"name": "601", "class_name": "Conv2D", "config": {"name": "601", "trainable": true, "dtype": "float32", "filters": 16, "kernel_size": [3, 3], "strides": [1, 1], "padding": "valid", "data_format": "channels_first", "dilation_rate": [1, 1], "activation": "linear", "use_bias": true, "kernel_initializer": {"class_name": "Zeros", "config": {"dtype": "float32"}}, "bias_initializer": {"class_name": "Zeros", "config": {"dtype": "float32"}}, "kernel_regularizer": null, "bias_regularizer": null, "activity_regularizer": null, "kernel_constraint": null, "bias_constraint": null}, "inbound_nodes": [[["601_pad", 0, 0, {}]]]}, {"name": "623", "class_name": "Conv2D", "config": {"name": "623", "trainable": true, "dtype": "float32", "filters": 16, "kernel_size": [3, 3], "strides": [1, 1], "padding": "valid", "data_format": "channels_first", "dilation_rate": [1, 1], "activation": "linear", "use_bias": true, "kernel_initializer": {"class_name": "Zeros", "config": {"dtype": "float32"}}, "bias_initializer": {"class_name": "Zeros", "config": {"dtype": "float32"}}, "kernel_regularizer": null, "bias_regularizer": null, "activity_regularizer": null, "kernel_constraint": null, "bias_constraint": null}, "inbound_nodes": [[["623_pad", 0, 0, {}]]]}, {"name": "524", "class_name": "Conv2D", "config": {"name": "524", "trainable": true, "dtype": "float32", "filters": 324, "kernel_size": [3, 3], "strides": [1, 1], "padding": "valid", "data_format": "channels_first", "dilation_rate": [1, 1], "activation": "linear", "use_bias": true, "kernel_initializer": {"class_name": "Zeros", "config": {"dtype": "float32"}}, "bias_initializer": {"class_name": "Zeros", "config": {"dtype": "float32"}}, "kernel_regularizer": null, "bias_regularizer": null, "activity_regularizer": null, "kernel_constraint": null, "bias_constraint": null}, "inbound_nodes": [[["524_pad", 0, 0, {}]]]}, {"name": "546", "class_name": "Conv2D", "config": {"name": "546", "trainable": true, "dtype": "float32", "filters": 486, "kernel_size": [3, 3], "strides": [1, 1], "padding": "valid", "data_format": "channels_first", "dilation_rate": [1, 1], "activation": "linear", "use_bias": true, "kernel_initializer": {"class_name": "Zeros", "config": {"dtype": "float32"}}, "bias_initializer": {"class_name": "Zeros", "config": {"dtype": "float32"}}, "kernel_regularizer": null, "bias_regularizer": null, "activity_regularizer": null, "kernel_constraint": null, "bias_constraint": null}, "inbound_nodes": [[["546_pad", 0, 0, {}]]]}, {"name": "568", "class_name": "Conv2D", "config": {"name": "568", "trainable": true, "dtype": "float32", "filters": 486, "kernel_size": [3, 3], "strides": [1, 1], "padding": "valid", "data_format": "channels_first", "dilation_rate": [1, 1], "activation": "linear", "use_bias": true, "kernel_initializer": {"class_name": "Zeros", "config": {"dtype": "float32"}}, "bias_initializer": {"class_name": "Zeros", "config": {"dtype": "float32"}}, "kernel_regularizer": null, "bias_regularizer": null, "activity_regularizer": null, "kernel_constraint": null, "bias_constraint": null}, "inbound_nodes": [[["568_pad", 0, 0, {}]]]}, {"name": "590", "class_name": "Conv2D", "config": {"name": "590", "trainable": true, "dtype": "float32", "filters": 486, "kernel_size": [3, 3], "strides": [1, 1], "padding": "valid", "data_format": "channels_first", "dilation_rate": [1, 1], "activation": "linear", "use_bias": true, "kernel_initializer": {"class_name": "Zeros", "config": {"dtype": "float32"}}, "bias_initializer": {"class_name": "Zeros", "config": {"dtype": "float32"}}, "kernel_regularizer": null, "bias_regularizer": null, "activity_regularizer": null, "kernel_constraint": null, "bias_constraint": null}, "inbound_nodes": [[["590_pad", 0, 0, {}]]]}, {"name": "612", "class_name": "Conv2D", "config": {"name": "612", "trainable": true, "dtype": "float32", "filters": 324, "kernel_size": [3, 3], "strides": [1, 1], "padding": "valid", "data_format": "channels_first", "dilation_rate": [1, 1], "activation": "linear", "use_bias": true, "kernel_initializer": {"class_name": "Zeros", "config": {"dtype": "float32"}}, "bias_initializer": {"class_name": "Zeros", "config": {"dtype": "float32"}}, "kernel_regularizer": null, "bias_regularizer": null, "activity_regularizer": null, "kernel_constraint": null, "bias_constraint": null}, "inbound_nodes": [[["612_pad", 0, 0, {}]]]}, {"name": "634", "class_name": "Conv2D", "config": {"name": "634", "trainable": true, "dtype": "float32", "filters": 324, "kernel_size": [3, 3], "strides": [1, 1], "padding": "valid", "data_format": "channels_first", "dilation_rate": [1, 1], "activation": "linear", "use_bias": true, "kernel_initializer": {"class_name": "Zeros", "config": {"dtype": "float32"}}, "bias_initializer": {"class_name": "Zeros", "config": {"dtype": "float32"}}, "kernel_regularizer": null, "bias_regularizer": null, "activity_regularizer": null, "kernel_constraint": null, "bias_constraint": null}, "inbound_nodes": [[["634_pad", 0, 0, {}]]]}, {"name": "523", "class_name": "Reshape", "config": {"name": "523", "trainable": true, "dtype": "float32", "target_shape": [4, -1]}, "inbound_nodes": [[["513", 0, 0, {}]]]}, {"name": "545", "class_name": "Reshape", "config": {"name": "545", "trainable": true, "dtype": "float32", "target_shape": [4, -1]}, "inbound_nodes": [[["535", 0, 0, {}]]]}, {"name": "567", "class_name": "Reshape", "config": {"name": "567", "trainable": true, "dtype": "float32", "target_shape": [4, -1]}, "inbound_nodes": [[["557", 0, 0, {}]]]}, {"name": "589", "class_name": "Reshape", "config": {"name": "589", "trainable": true, "dtype": "float32", "target_shape": [4, -1]}, "inbound_nodes": [[["579", 0, 0, {}]]]}, {"name": "611", "class_name": "Reshape", "config": {"name": "611", "trainable": true, "dtype": "float32", "target_shape": [4, -1]}, "inbound_nodes": [[["601", 0, 0, {}]]]}, {"name": "633", "class_name": "Reshape", "config": {"name": "633", "trainable": true, "dtype": "float32", "target_shape": [4, -1]}, "inbound_nodes": [[["623", 0, 0, {}]]]}, {"name": "534", "class_name": "Reshape", "config": {"name": "534", "trainable": true, "dtype": "float32", "target_shape": [81, -1]}, "inbound_nodes": [[["524", 0, 0, {}]]]}, {"name": "556", "class_name": "Reshape", "config": {"name": "556", "trainable": true, "dtype": "float32", "target_shape": [81, -1]}, "inbound_nodes": [[["546", 0, 0, {}]]]}, {"name": "578", "class_name": "Reshape", "config": {"name": "578", "trainable": true, "dtype": "float32", "target_shape": [81, -1]}, "inbound_nodes": [[["568", 0, 0, {}]]]}, {"name": "600", "class_name": "Reshape", "config": {"name": "600", "trainable": true, "dtype": "float32", "target_shape": [81, -1]}, "inbound_nodes": [[["590", 0, 0, {}]]]}, {"name": "622", "class_name": "Reshape", "config": {"name": "622", "trainable": true, "dtype": "float32", "target_shape": [81, -1]}, "inbound_nodes": [[["612", 0, 0, {}]]]}, {"name": "644", "class_name": "Reshape", "config": {"name": "644", "trainable": true, "dtype": "float32", "target_shape": [81, -1]}, "inbound_nodes": [[["634", 0, 0, {}]]]}, {"name": "output_0", "class_name": "Concatenate", "config": {"name": "output_0", "trainable": true, "dtype": "float32", "axis": 2}, "inbound_nodes": [[["523", 0, 0, {}], ["545", 0, 0, {}], ["567", 0, 0, {}], ["589", 0, 0, {}], ["611", 0, 0, {}], ["633", 0, 0, {}]]]}, {"name": "output_1", "class_name": "Concatenate", "config": {"name": "output_1", "trainable": true, "dtype": "float32", "axis": 2}, "inbound_nodes": [[["534", 0, 0, {}], ["556", 0, 0, {}], ["578", 0, 0, {}], ["600", 0, 0, {}], ["622", 0, 0, {}], ["644", 0, 0, {}]]]}], "input_layers": [["input_0", 0, 0]], "output_layers": [["output_0", 0, 0], ["output_1", 0, 0]]}}}, "weightsManifest": [{"paths": ["group1-shard1of22.bin", "group1-shard2of22.bin", "group1-shard3of22.bin", "group1-shard4of22.bin", "group1-shard5of22.bin", "group1-shard6of22.bin", "group1-shard7of22.bin", "group1-shard8of22.bin", "group1-shard9of22.bin", "group1-shard10of22.bin", "group1-shard11of22.bin", "group1-shard12of22.bin", "group1-shard13of22.bin", "group1-shard14of22.bin", "group1-shard15of22.bin", "group1-shard16of22.bin", "group1-shard17of22.bin", "group1-shard18of22.bin", "group1-shard19of22.bin", "group1-shard20of22.bin", "group1-shard21of22.bin", "group1-shard22of22.bin"], "weights": [{"name": "343/kernel", "shape": [7, 7, 3, 64], "dtype": "float32"}, {"name": "344/gamma", "shape": [64], "dtype": "float32"}, {"name": "344/beta", "shape": [64], "dtype": "float32"}, {"name": "344/moving_mean", "shape": [64], "dtype": "float32"}, {"name": "344/moving_variance", "shape": [64], "dtype": "float32"}, {"name": "347/kernel", "shape": [1, 1, 64, 64], "dtype": "float32"}, {"name": "348/gamma", "shape": [64], "dtype": "float32"}, {"name": "348/beta", "shape": [64], "dtype": "float32"}, {"name": "348/moving_mean", "shape": [64], "dtype": "float32"}, {"name": "348/moving_variance", "shape": [64], "dtype": "float32"}, {"name": "350/kernel", "shape": [3, 3, 64, 64], "dtype": "float32"}, {"name": "351/gamma", "shape": [64], "dtype": "float32"}, {"name": "351/beta", "shape": [64], "dtype": "float32"}, {"name": "351/moving_mean", "shape": [64], "dtype": "float32"}, {"name": "351/moving_variance", "shape": [64], "dtype": "float32"}, {"name": "353/kernel", "shape": [1, 1, 64, 256], "dtype": "float32"}, {"name": "354/gamma", "shape": [256], "dtype": "float32"}, {"name": "354/beta", "shape": [256], "dtype": "float32"}, {"name": "354/moving_mean", "shape": [256], "dtype": "float32"}, {"name": "354/moving_variance", "shape": [256], "dtype": "float32"}, {"name": "355/kernel", "shape": [1, 1, 64, 256], "dtype": "float32"}, {"name": "356/gamma", "shape": [256], "dtype": "float32"}, {"name": "356/beta", "shape": [256], "dtype": "float32"}, {"name": "356/moving_mean", "shape": [256], "dtype": "float32"}, {"name": "356/moving_variance", "shape": [256], "dtype": "float32"}, {"name": "359/kernel", "shape": [1, 1, 256, 64], "dtype": "float32"}, {"name": "360/gamma", "shape": [64], "dtype": "float32"}, {"name": "360/beta", "shape": [64], "dtype": "float32"}, {"name": "360/moving_mean", "shape": [64], "dtype": "float32"}, {"name": "360/moving_variance", "shape": [64], "dtype": "float32"}, {"name": "362/kernel", "shape": [3, 3, 64, 64], "dtype": "float32"}, {"name": "363/gamma", "shape": [64], "dtype": "float32"}, {"name": "363/beta", "shape": [64], "dtype": "float32"}, {"name": "363/moving_mean", "shape": [64], "dtype": "float32"}, {"name": "363/moving_variance", "shape": [64], "dtype": "float32"}, {"name": "365/kernel", "shape": [1, 1, 64, 256], "dtype": "float32"}, {"name": "366/gamma", "shape": [256], "dtype": "float32"}, {"name": "366/beta", "shape": [256], "dtype": "float32"}, {"name": "366/moving_mean", "shape": [256], "dtype": "float32"}, {"name": "366/moving_variance", "shape": [256], "dtype": "float32"}, {"name": "369/kernel", "shape": [1, 1, 256, 64], "dtype": "float32"}, {"name": "370/gamma", "shape": [64], "dtype": "float32"}, {"name": "370/beta", "shape": [64], "dtype": "float32"}, {"name": "370/moving_mean", "shape": [64], "dtype": "float32"}, {"name": "370/moving_variance", "shape": [64], "dtype": "float32"}, {"name": "372/kernel", "shape": [3, 3, 64, 64], "dtype": "float32"}, {"name": "373/gamma", "shape": [64], "dtype": "float32"}, {"name": "373/beta", "shape": [64], "dtype": "float32"}, {"name": "373/moving_mean", "shape": [64], "dtype": "float32"}, {"name": "373/moving_variance", "shape": [64], "dtype": "float32"}, {"name": "375/kernel", "shape": [1, 1, 64, 256], "dtype": "float32"}, {"name": "376/gamma", "shape": [256], "dtype": "float32"}, {"name": "376/beta", "shape": [256], "dtype": "float32"}, {"name": "376/moving_mean", "shape": [256], "dtype": "float32"}, {"name": "376/moving_variance", "shape": [256], "dtype": "float32"}, {"name": "379/kernel", "shape": [1, 1, 256, 128], "dtype": "float32"}, {"name": "380/gamma", "shape": [128], "dtype": "float32"}, {"name": "380/beta", "shape": [128], "dtype": "float32"}, {"name": "380/moving_mean", "shape": [128], "dtype": "float32"}, {"name": "380/moving_variance", "shape": [128], "dtype": "float32"}, {"name": "382/kernel", "shape": [3, 3, 128, 128], "dtype": "float32"}, {"name": "383/gamma", "shape": [128], "dtype": "float32"}, {"name": "383/beta", "shape": [128], "dtype": "float32"}, {"name": "383/moving_mean", "shape": [128], "dtype": "float32"}, {"name": "383/moving_variance", "shape": [128], "dtype": "float32"}, {"name": "385/kernel", "shape": [1, 1, 128, 512], "dtype": "float32"}, {"name": "386/gamma", "shape": [512], "dtype": "float32"}, {"name": "386/beta", "shape": [512], "dtype": "float32"}, {"name": "386/moving_mean", "shape": [512], "dtype": "float32"}, {"name": "386/moving_variance", "shape": [512], "dtype": "float32"}, {"name": "387/kernel", "shape": [1, 1, 256, 512], "dtype": "float32"}, {"name": "388/gamma", "shape": [512], "dtype": "float32"}, {"name": "388/beta", "shape": [512], "dtype": "float32"}, {"name": "388/moving_mean", "shape": [512], "dtype": "float32"}, {"name": "388/moving_variance", "shape": [512], "dtype": "float32"}, {"name": "391/kernel", "shape": [1, 1, 512, 128], "dtype": "float32"}, {"name": "392/gamma", "shape": [128], "dtype": "float32"}, {"name": "392/beta", "shape": [128], "dtype": "float32"}, {"name": "392/moving_mean", "shape": [128], "dtype": "float32"}, {"name": "392/moving_variance", "shape": [128], "dtype": "float32"}, {"name": "394/kernel", "shape": [3, 3, 128, 128], "dtype": "float32"}, {"name": "395/gamma", "shape": [128], "dtype": "float32"}, {"name": "395/beta", "shape": [128], "dtype": "float32"}, {"name": "395/moving_mean", "shape": [128], "dtype": "float32"}, {"name": "395/moving_variance", "shape": [128], "dtype": "float32"}, {"name": "397/kernel", "shape": [1, 1, 128, 512], "dtype": "float32"}, {"name": "398/gamma", "shape": [512], "dtype": "float32"}, {"name": "398/beta", "shape": [512], "dtype": "float32"}, {"name": "398/moving_mean", "shape": [512], "dtype": "float32"}, {"name": "398/moving_variance", "shape": [512], "dtype": "float32"}, {"name": "401/kernel", "shape": [1, 1, 512, 128], "dtype": "float32"}, {"name": "402/gamma", "shape": [128], "dtype": "float32"}, {"name": "402/beta", "shape": [128], "dtype": "float32"}, {"name": "402/moving_mean", "shape": [128], "dtype": "float32"}, {"name": "402/moving_variance", "shape": [128], "dtype": "float32"}, {"name": "404/kernel", "shape": [3, 3, 128, 128], "dtype": "float32"}, {"name": "405/gamma", "shape": [128], "dtype": "float32"}, {"name": "405/beta", "shape": [128], "dtype": "float32"}, {"name": "405/moving_mean", "shape": [128], "dtype": "float32"}, {"name": "405/moving_variance", "shape": [128], "dtype": "float32"}, {"name": "407/kernel", "shape": [1, 1, 128, 512], "dtype": "float32"}, {"name": "408/gamma", "shape": [512], "dtype": "float32"}, {"name": "408/beta", "shape": [512], "dtype": "float32"}, {"name": "408/moving_mean", "shape": [512], "dtype": "float32"}, {"name": "408/moving_variance", "shape": [512], "dtype": "float32"}, {"name": "411/kernel", "shape": [1, 1, 512, 128], "dtype": "float32"}, {"name": "412/gamma", "shape": [128], "dtype": "float32"}, {"name": "412/beta", "shape": [128], "dtype": "float32"}, {"name": "412/moving_mean", "shape": [128], "dtype": "float32"}, {"name": "412/moving_variance", "shape": [128], "dtype": "float32"}, {"name": "414/kernel", "shape": [3, 3, 128, 128], "dtype": "float32"}, {"name": "415/gamma", "shape": [128], "dtype": "float32"}, {"name": "415/beta", "shape": [128], "dtype": "float32"}, {"name": "415/moving_mean", "shape": [128], "dtype": "float32"}, {"name": "415/moving_variance", "shape": [128], "dtype": "float32"}, {"name": "417/kernel", "shape": [1, 1, 128, 512], "dtype": "float32"}, {"name": "418/gamma", "shape": [512], "dtype": "float32"}, {"name": "418/beta", "shape": [512], "dtype": "float32"}, {"name": "418/moving_mean", "shape": [512], "dtype": "float32"}, {"name": "418/moving_variance", "shape": [512], "dtype": "float32"}, {"name": "421/kernel", "shape": [1, 1, 512, 256], "dtype": "float32"}, {"name": "422/gamma", "shape": [256], "dtype": "float32"}, {"name": "422/beta", "shape": [256], "dtype": "float32"}, {"name": "422/moving_mean", "shape": [256], "dtype": "float32"}, {"name": "422/moving_variance", "shape": [256], "dtype": "float32"}, {"name": "424/kernel", "shape": [3, 3, 256, 256], "dtype": "float32"}, {"name": "425/gamma", "shape": [256], "dtype": "float32"}, {"name": "425/beta", "shape": [256], "dtype": "float32"}, {"name": "425/moving_mean", "shape": [256], "dtype": "float32"}, {"name": "425/moving_variance", "shape": [256], "dtype": "float32"}, {"name": "427/kernel", "shape": [1, 1, 256, 1024], "dtype": "float32"}, {"name": "428/gamma", "shape": [1024], "dtype": "float32"}, {"name": "428/beta", "shape": [1024], "dtype": "float32"}, {"name": "428/moving_mean", "shape": [1024], "dtype": "float32"}, {"name": "428/moving_variance", "shape": [1024], "dtype": "float32"}, {"name": "429/kernel", "shape": [1, 1, 512, 1024], "dtype": "float32"}, {"name": "430/gamma", "shape": [1024], "dtype": "float32"}, {"name": "430/beta", "shape": [1024], "dtype": "float32"}, {"name": "430/moving_mean", "shape": [1024], "dtype": "float32"}, {"name": "430/moving_variance", "shape": [1024], "dtype": "float32"}, {"name": "433/kernel", "shape": [1, 1, 1024, 256], "dtype": "float32"}, {"name": "434/gamma", "shape": [256], "dtype": "float32"}, {"name": "434/beta", "shape": [256], "dtype": "float32"}, {"name": "434/moving_mean", "shape": [256], "dtype": "float32"}, {"name": "434/moving_variance", "shape": [256], "dtype": "float32"}, {"name": "436/kernel", "shape": [3, 3, 256, 256], "dtype": "float32"}, {"name": "437/gamma", "shape": [256], "dtype": "float32"}, {"name": "437/beta", "shape": [256], "dtype": "float32"}, {"name": "437/moving_mean", "shape": [256], "dtype": "float32"}, {"name": "437/moving_variance", "shape": [256], "dtype": "float32"}, {"name": "439/kernel", "shape": [1, 1, 256, 1024], "dtype": "float32"}, {"name": "440/gamma", "shape": [1024], "dtype": "float32"}, {"name": "440/beta", "shape": [1024], "dtype": "float32"}, {"name": "440/moving_mean", "shape": [1024], "dtype": "float32"}, {"name": "440/moving_variance", "shape": [1024], "dtype": "float32"}, {"name": "443/kernel", "shape": [1, 1, 1024, 256], "dtype": "float32"}, {"name": "444/gamma", "shape": [256], "dtype": "float32"}, {"name": "444/beta", "shape": [256], "dtype": "float32"}, {"name": "444/moving_mean", "shape": [256], "dtype": "float32"}, {"name": "444/moving_variance", "shape": [256], "dtype": "float32"}, {"name": "446/kernel", "shape": [3, 3, 256, 256], "dtype": "float32"}, {"name": "447/gamma", "shape": [256], "dtype": "float32"}, {"name": "447/beta", "shape": [256], "dtype": "float32"}, {"name": "447/moving_mean", "shape": [256], "dtype": "float32"}, {"name": "447/moving_variance", "shape": [256], "dtype": "float32"}, {"name": "449/kernel", "shape": [1, 1, 256, 1024], "dtype": "float32"}, {"name": "450/gamma", "shape": [1024], "dtype": "float32"}, {"name": "450/beta", "shape": [1024], "dtype": "float32"}, {"name": "450/moving_mean", "shape": [1024], "dtype": "float32"}, {"name": "450/moving_variance", "shape": [1024], "dtype": "float32"}, {"name": "453/kernel", "shape": [1, 1, 1024, 256], "dtype": "float32"}, {"name": "454/gamma", "shape": [256], "dtype": "float32"}, {"name": "454/beta", "shape": [256], "dtype": "float32"}, {"name": "454/moving_mean", "shape": [256], "dtype": "float32"}, {"name": "454/moving_variance", "shape": [256], "dtype": "float32"}, {"name": "456/kernel", "shape": [3, 3, 256, 256], "dtype": "float32"}, {"name": "457/gamma", "shape": [256], "dtype": "float32"}, {"name": "457/beta", "shape": [256], "dtype": "float32"}, {"name": "457/moving_mean", "shape": [256], "dtype": "float32"}, {"name": "457/moving_variance", "shape": [256], "dtype": "float32"}, {"name": "459/kernel", "shape": [1, 1, 256, 1024], "dtype": "float32"}, {"name": "460/gamma", "shape": [1024], "dtype": "float32"}, {"name": "460/beta", "shape": [1024], "dtype": "float32"}, {"name": "460/moving_mean", "shape": [1024], "dtype": "float32"}, {"name": "460/moving_variance", "shape": [1024], "dtype": "float32"}, {"name": "463/kernel", "shape": [1, 1, 1024, 256], "dtype": "float32"}, {"name": "464/gamma", "shape": [256], "dtype": "float32"}, {"name": "464/beta", "shape": [256], "dtype": "float32"}, {"name": "464/moving_mean", "shape": [256], "dtype": "float32"}, {"name": "464/moving_variance", "shape": [256], "dtype": "float32"}, {"name": "466/kernel", "shape": [3, 3, 256, 256], "dtype": "float32"}, {"name": "467/gamma", "shape": [256], "dtype": "float32"}, {"name": "467/beta", "shape": [256], "dtype": "float32"}, {"name": "467/moving_mean", "shape": [256], "dtype": "float32"}, {"name": "467/moving_variance", "shape": [256], "dtype": "float32"}, {"name": "469/kernel", "shape": [1, 1, 256, 1024], "dtype": "float32"}, {"name": "470/gamma", "shape": [1024], "dtype": "float32"}, {"name": "470/beta", "shape": [1024], "dtype": "float32"}, {"name": "470/moving_mean", "shape": [1024], "dtype": "float32"}, {"name": "470/moving_variance", "shape": [1024], "dtype": "float32"}, {"name": "473/kernel", "shape": [1, 1, 1024, 256], "dtype": "float32"}, {"name": "474/gamma", "shape": [256], "dtype": "float32"}, {"name": "474/beta", "shape": [256], "dtype": "float32"}, {"name": "474/moving_mean", "shape": [256], "dtype": "float32"}, {"name": "474/moving_variance", "shape": [256], "dtype": "float32"}, {"name": "476/kernel", "shape": [3, 3, 256, 256], "dtype": "float32"}, {"name": "477/gamma", "shape": [256], "dtype": "float32"}, {"name": "477/beta", "shape": [256], "dtype": "float32"}, {"name": "477/moving_mean", "shape": [256], "dtype": "float32"}, {"name": "477/moving_variance", "shape": [256], "dtype": "float32"}, {"name": "479/kernel", "shape": [1, 1, 256, 1024], "dtype": "float32"}, {"name": "480/gamma", "shape": [1024], "dtype": "float32"}, {"name": "480/beta", "shape": [1024], "dtype": "float32"}, {"name": "480/moving_mean", "shape": [1024], "dtype": "float32"}, {"name": "480/moving_variance", "shape": [1024], "dtype": "float32"}, {"name": "483/kernel", "shape": [1, 1, 1024, 256], "dtype": "float32"}, {"name": "484/gamma", "shape": [256], "dtype": "float32"}, {"name": "484/beta", "shape": [256], "dtype": "float32"}, {"name": "484/moving_mean", "shape": [256], "dtype": "float32"}, {"name": "484/moving_variance", "shape": [256], "dtype": "float32"}, {"name": "486/kernel", "shape": [3, 3, 256, 512], "dtype": "float32"}, {"name": "487/gamma", "shape": [512], "dtype": "float32"}, {"name": "487/beta", "shape": [512], "dtype": "float32"}, {"name": "487/moving_mean", "shape": [512], "dtype": "float32"}, {"name": "487/moving_variance", "shape": [512], "dtype": "float32"}, {"name": "489/kernel", "shape": [1, 1, 512, 256], "dtype": "float32"}, {"name": "490/gamma", "shape": [256], "dtype": "float32"}, {"name": "490/beta", "shape": [256], "dtype": "float32"}, {"name": "490/moving_mean", "shape": [256], "dtype": "float32"}, {"name": "490/moving_variance", "shape": [256], "dtype": "float32"}, {"name": "492/kernel", "shape": [3, 3, 256, 512], "dtype": "float32"}, {"name": "493/gamma", "shape": [512], "dtype": "float32"}, {"name": "493/beta", "shape": [512], "dtype": "float32"}, {"name": "493/moving_mean", "shape": [512], "dtype": "float32"}, {"name": "493/moving_variance", "shape": [512], "dtype": "float32"}, {"name": "495/kernel", "shape": [1, 1, 512, 128], "dtype": "float32"}, {"name": "496/gamma", "shape": [128], "dtype": "float32"}, {"name": "496/beta", "shape": [128], "dtype": "float32"}, {"name": "496/moving_mean", "shape": [128], "dtype": "float32"}, {"name": "496/moving_variance", "shape": [128], "dtype": "float32"}, {"name": "498/kernel", "shape": [3, 3, 128, 256], "dtype": "float32"}, {"name": "499/gamma", "shape": [256], "dtype": "float32"}, {"name": "499/beta", "shape": [256], "dtype": "float32"}, {"name": "499/moving_mean", "shape": [256], "dtype": "float32"}, {"name": "499/moving_variance", "shape": [256], "dtype": "float32"}, {"name": "501/kernel", "shape": [1, 1, 256, 128], "dtype": "float32"}, {"name": "502/gamma", "shape": [128], "dtype": "float32"}, {"name": "502/beta", "shape": [128], "dtype": "float32"}, {"name": "502/moving_mean", "shape": [128], "dtype": "float32"}, {"name": "502/moving_variance", "shape": [128], "dtype": "float32"}, {"name": "504/kernel", "shape": [3, 3, 128, 256], "dtype": "float32"}, {"name": "505/gamma", "shape": [256], "dtype": "float32"}, {"name": "505/beta", "shape": [256], "dtype": "float32"}, {"name": "505/moving_mean", "shape": [256], "dtype": "float32"}, {"name": "505/moving_variance", "shape": [256], "dtype": "float32"}, {"name": "507/kernel", "shape": [1, 1, 256, 128], "dtype": "float32"}, {"name": "508/gamma", "shape": [128], "dtype": "float32"}, {"name": "508/beta", "shape": [128], "dtype": "float32"}, {"name": "508/moving_mean", "shape": [128], "dtype": "float32"}, {"name": "508/moving_variance", "shape": [128], "dtype": "float32"}, {"name": "510/kernel", "shape": [3, 3, 128, 256], "dtype": "float32"}, {"name": "511/gamma", "shape": [256], "dtype": "float32"}, {"name": "511/beta", "shape": [256], "dtype": "float32"}, {"name": "511/moving_mean", "shape": [256], "dtype": "float32"}, {"name": "511/moving_variance", "shape": [256], "dtype": "float32"}, {"name": "513/kernel", "shape": [3, 3, 1024, 16], "dtype": "float32"}, {"name": "513/bias", "shape": [16], "dtype": "float32"}, {"name": "524/kernel", "shape": [3, 3, 1024, 324], "dtype": "float32"}, {"name": "524/bias", "shape": [324], "dtype": "float32"}, {"name": "535/kernel", "shape": [3, 3, 512, 24], "dtype": "float32"}, {"name": "535/bias", "shape": [24], "dtype": "float32"}, {"name": "546/kernel", "shape": [3, 3, 512, 486], "dtype": "float32"}, {"name": "546/bias", "shape": [486], "dtype": "float32"}, {"name": "557/kernel", "shape": [3, 3, 512, 24], "dtype": "float32"}, {"name": "557/bias", "shape": [24], "dtype": "float32"}, {"name": "568/kernel", "shape": [3, 3, 512, 486], "dtype": "float32"}, {"name": "568/bias", "shape": [486], "dtype": "float32"}, {"name": "579/kernel", "shape": [3, 3, 256, 24], "dtype": "float32"}, {"name": "579/bias", "shape": [24], "dtype": "float32"}, {"name": "590/kernel", "shape": [3, 3, 256, 486], "dtype": "float32"}, {"name": "590/bias", "shape": [486], "dtype": "float32"}, {"name": "601/kernel", "shape": [3, 3, 256, 16], "dtype": "float32"}, {"name": "601/bias", "shape": [16], "dtype": "float32"}, {"name": "612/kernel", "shape": [3, 3, 256, 324], "dtype": "float32"}, {"name": "612/bias", "shape": [324], "dtype": "float32"}, {"name": "623/kernel", "shape": [3, 3, 256, 16], "dtype": "float32"}, {"name": "623/bias", "shape": [16], "dtype": "float32"}, {"name": "634/kernel", "shape": [3, 3, 256, 324], "dtype": "float32"}, {"name": "634/bias", "shape": [324], "dtype": "float32"}]}]}